models/best_dcn_model.pth (torch, 387794 bytes, 65 tensors)

batch_norm.weight f4 [20]
00000000: 4b34 9e3c c79c 303a c8a6 fb3a 7c3f fabb
00000010: b5bd b2bb f271 cebc 9f97 0839 2c0d 3bbc
00000020: a4b4 8fba 1328 ed3e 0936 2a3f 780d 4f36
00000030: 8977 a13c ce38 6dbb e04b dc3c ad14 adbc
00000040: d0c5 063d 5a33 c43c 2afd 42bb 1eb6 29ba
0.019312045 0.0006737229 0.0019199485 -0.0076369625 -0.0054547437 -0.025200818 0.00013026454 -0.011416715
-0.0010963869 0.46319637 0.664887 3.0853244e-06 0.01971032 -0.0036197188 0.026891649 -0.021128023
0.032903492 0.023950268 -0.0029752948 -0.0006473976

batch_norm.bias f4 [20]
00000000: fab4 16b8 8fde a5b5 9bb3 1136 f8b3 9b36
00000010: e6d6 7437 795f 1338 7dc4 fab5 e490 ee37
00000020: 5a51 c637 c4d1 aa33 7fe3 e3b3 d3d1 a432
00000030: 1bd6 95b5 e329 0bb4 2099 78b6 7336 e6b4
00000040: 0e69 5eb5 0e0f 9c36 1ef3 2335 1424 1438
-3.5931334e-05 -1.2358231e-06 2.1711228e-06 4.640311e-06 1.4593568e-05 3.5136447e-05 -1.8683637e-06 2.843928e-05
2.3641322e-05 7.954398e-08 -1.06118925e-07 1.918753e-08 -1.1163678e-06 -1.2960622e-07 -3.704401e-06 -4.2880455e-07
-8.285432e-07 4.650915e-06 6.1076014e-07 3.531955e-05

batch_norm.running_mean f4 [20]
00000000: 4e63 a73e 8955 083f bc4d 953e 9ccb 223e
00000010: 958f ac3e 4654 283e e854 ef3e 9bc1 dd3e
00000020: 2697 273f 7b13 323e 6c8d 243e dde1 5f3e
00000030: 892c 013f 5d3f 703f 27b5 813e a9e4 1e3d
00000040: 4e61 1e3e 70a4 a43e cc34 b83e e8fc c33e
0.3269295 0.53255516 0.2916087 0.15897983 0.33703294 0.16438398 0.46744466 0.43311772
0.6546501 0.17390244 0.16069573 0.21863504 0.5045858 0.93846685 0.2533352 0.038792286
0.15466806 0.32156706 0.3597778 0.3827889

batch_norm.running_var f4 [20]
00000000: c0d0 c23c 79f7 063d edba 1a3d 73c3 503c
00000010: a886 9f3c c1fe aa3c 78f7 063d 0356 0c3e
00000020: ca49 293d a13f 4e3b 7abd db3b bd27 c23d
00000030: 5461 3b3e 3439 493d a201 053d 2de4 f73a
00000040: 67cd b53c 763a 003d 624e 373d 3bd7 1f3d
0.02378118 0.032950852 0.037775923 0.012741911 0.019473389 0.02087343 0.03295085 0.13704686
0.041330136 0.0031471031 0.006705937 0.09480236 0.18298846 0.04912682 0.03247226 0.0018912606
0.02219267 0.031305753 0.044752486 0.03902362

embedding.0.weight f4 [40, 20]
00000000: 7cc4 66b8 7b0c 2f3a 2cd0 f5ba e579 46bc
00000010: 8ba4 b43a 2e92 453b 84bc e838 a5d5 39bc
00000020: 60a3 61ba ec1a 82bd 1bfc a83d 2e39 143a
00000030: a01c 193a b77b ed3a 42b9 a0bb b089 1cbc
00000040: f2d5 473c 551d 9b3b 67a0 9039 0090 673a
00000050: 26d9 043c 1622 70bb 0944 ae3a 4734 d9b9
00000060: 1469 29ba cbb9 223c c9e7 1ab9 8f07 193c
00000070: 7cb9 613b 1b8f 3b3d 9c46 bbbd 78ac d638
00000080: e9a9 82bb 7cad 87bb 2d87 433c 2cd0 5bbb
00000090: 8c63 483c 2894 58bb 78d8 61bb c91d daba
000000a0: 0449 843c a79d 06bb 32e4 05bb 0a88 8a3b
000000b0: 3843 f0bb 7718 a63c 612a 9cb9 ac6b 8abc
000000c0: 8e04 a93a aead 363d 235e c5bd ac48 5f39
000000d0: 8008 9c3c 6a1c f0ba f0ed 313c c850 20bc
000000e0: 0ed3 ccbb e858 4dbc 944f 96bb 3be3 66ba
000000f0: e004 7c3b 9967 12bb 48fc f838 1ab8 183c
00000100: cb0e 0abb d69a 053b 3c37 2bb9 e991 b63b
00000110: 4e12 f73a 2f08 453d 0b26 bcbd 1f5b 96b9
00000120: a469 38bc 81eb 7dbb 7441 4c3c dc73 94bb
00000130: c1de 4d3c 3035 193c 5e8a ea3a e863 bc3a
00000140: 219b 0000 684e 0b80 30ab 1fac 8080 0a00
00000150: ecd2 032d 4c52 c728 2aff 1da8 66c6 b6b2
00000160: d84f 9a19 86cd 0080 b97e 0b00 fbe3 0900
00000170: 4946 082e 40ee a129 f889 4219 29e9 0280
00000180: 516d 0100 e524 0380 55c1 1c8f fd8e d517
00000190: 1b85 7abb 9410 723a 1a7b 053a ec15 59bb
000001a0: 7faf 0539 8abe 76bc 07a6 6bb9 4c6a f83b
000001b0: 0e4d a939 7fc4 a9bd 3b58 9a3d 6c98 f539
000001c0: f118 7f3c f28e 4b39 57bd 963b 14df afbc
000001d0: 1142 70ba c1c4 ba3c d04b 593b af55 213b
000001e0: 0108 fc3a 9e1b b8b9 7558 93ba f8cb b5bb
000001f0: 0be2 c73a 7de1 bebc 8624 bd38 21e7 bb3a
00000200: e090 93b9 1e78 a8bd 9545 a13d 9598 073a
00000210: 84c6 263c bdbf 85bb 48c4 1abc 3101 14bc
00000220: 3958 943b 97c4 723c 24ef 8f38 b7ba 693a
00000230: 7c00 d13a 0e69 1cba f7e4 743a 8a04 8bbc
00000240: 8a16 cc39 f128 1abd 7489 f439 546e 56bc
00000250: 518a d539 228e bbbd 9ee2 8e3d 2f3c 99b9
00000260: 21b2 78bc 11f7 bf3a 6cf1 c03b a2a1 85bc
00000270: 820d dabb b03c 1dbb 40e3 50b8 712b 493a
00000280: 4dfe df3b 2ed1 3fbb e884 293b 3869 9fb9
00000290: 3df5 23b9 6cbc cbba bcf1 9439 6f4c d13a
000002a0: 05d4 723a 453f 2e3d 8471 c4bd 3ab0 73b9
000002b0: 73ca 213b 5f5a cc3a aa60 a33c b1e2 42bc
000002c0: 2997 333c 5548 0f3b 53f6 b1bb b94d feba
000002d0: 9274 5e3c ed46 3439 28b4 a738 18e6 86bb
000002e0: 94f5 3fb9 002c 15bc 030f 8e39 2c41 85ba
000002f0: eac1 d13a 4a11 703d 7fe5 abbd d3b2 c9b9
00000300: a7f1 09bc 1662 d53a afc0 c13b 7d63 2e3c
00000310: a320 8ebc 3001 f2ba ce0b 36ba a66a e2b8
00000320: 6922 753a 3223 deb9 4fa0 f7ba 5dcd 18bc
00000330: 8131 3bbb 17ad 9a3b 8d0e 23b8 cd4e daba
00000340: b409 9b38 705f 87bd 559c a53d 48ab 963a
00000350: 2913 123c b249 cdba a050 09bc 6c5b f2bb
00000360: 8995 2c3c ec2f 073c f381 2c3a 1d2b de3a
00000370: dda4 163c 3bda e636 df12 e63a 9d14 cf3b
00000380: c71b 82bb a36d 07bc 125e b038 57fc bc39
00000390: 8f0a 30bb a50d 203d adfe cfbd 022d 7336
000003a0: 4db5 e53b 6f80 c8ba 7443 b73c 9648 18bb
000003b0: 08ed 97bc de20 1d3c 18b6 bcbb 00b0 d8ba
000003c0: 45f1 843c d707 f4b9 3b5a 083b e802 0bbb
000003d0: 0d44 47bb fbc5 a5bb cead 4f39 241b 203b
000003e0: 4b39 ad3a dee0 773d c5dc aabd ce39 85ba
000003f0: 147b c7bb afd4 843b 5d3c 91ba 71c1 3c3c
-5.5019264e-05 0.000667758 -0.0018754057 -0.012114023 0.0013781948 0.0030146944 0.00011097736 -0.011342441
-0.00086074136 -0.06352791 0.0825121 0.00056542724 0.0005840752 0.0018118535 -0.004904897 -0.009554312
0.012197005 0.0047337213 0.0002758533 0.00088334084 0.008108413 -0.003664141 0.0013295423 -0.00041428415
-0.0006462496 0.009931992 -0.00014772931 0.009340181 0.0034442833 0.045790773 -0.09144327 0.0001023644
-0.00398754 -0.004140554 0.011934084 -0.0033540828 0.012230765 -0.0033047292 -0.00344613 -0.0016640957
0.016148098 -0.0020540745 -0.0020430204 0.004227643 -0.007332232 0.020275338 -0.00029786213 -0.016897045
0.0012895034 0.044599228 -0.09637096 0.0002129401 0.019047022 -0.0018319015 0.010859951 -0.009784885
-0.0062507456 -0.012533404 -0.004587123 -0.00088076637 0.0038455054 -0.002233958 0.000118725526 0.009321237
-0.0021065946 0.002038648 -0.00016328407 0.005571593 0.001885006 0.048103508 -0.091869436 -0.0002867812
-0.011255655 -0.0038745108 0.012466777 -0.004530413 0.012565316 0.00935106 0.001789402 0.0014373036
5.565e-41 -1.038317e-39 -2.2690287e-12 9.64452e-40 7.493322e-12 2.2129129e-14 -8.770581e-15 -2.127781e-08
1.5955475e-23 -7.3728e-41 1.05565e-39 9.08303e-40 3.0985246e-11 7.191166e-14 1.00574275e-23 -2.67313e-40
1.31051e-40 -2.88742e-40 -7.728628e-30 1.3800898e-24 -0.003822631 0.0009234038 0.0005091891 -0.0033124639
0.00012749246 -0.0150600765 -0.00022473196 0.007581031 0.00032291602 -0.08289432 0.0753636 0.00046843605
0.015569911 0.0001941284 0.004600208 -0.021468677 -0.0009165118 0.022798898 0.003315676 0.0024617722
0.001922846 -0.0003511579 -0.0011241572 -0.0055479966 0.0015249861 -0.02330088 9.019025e-05 0.001433585
-0.00028145965 -0.082260355 0.078746 0.0005172578 0.010179166 -0.004081695 -0.009446211 -0.009033487
0.0045271185 0.0148173785 6.863315e-05 0.00089160673 0.0015945579 -0.0005966582 0.000934198 -0.016969938
0.00038926705 -0.0376367 0.00046641717 -0.013087828 0.0004072958 -0.09157969 0.069768175 -0.00029227274
-0.015179188 0.0014645775 0.0058881547 -0.016312424 -0.0066544423 -0.0023992471 -4.9802708e-05 0.0007674015
0.006835735 -0.0029268968 0.0025866572 -0.00030405237 -0.0001563625 -0.0015543825 0.00028408866 0.0015968214
0.0009263161 0.042540807 -0.09591964 -0.00023239935 0.002468732 0.0015590898 0.019943554 -0.011894868
0.010961332 0.0021863182 -0.0054309755 -0.0019401825 0.013577597 0.0001719256 7.996737e-05 -0.004116785
-0.00018306664 -0.009104729 0.00027095535 -0.0010166517 0.0016003225 0.058610238 -0.08393382 -0.00038470942
-0.008419431 0.0016279842 0.0059128623 0.010643837 -0.017349547 -0.0018463489 -0.0006944508 -0.000107963846
0.0009351136 -0.00042369362 -0.001889238 -0.009326306 -0.0028563442 0.004720341 -3.887578e-05 -0.0016655565
7.392783e-05 -0.0661 0.080864586 0.0011495138 0.008915701 -0.0015662222 -0.008381039 -0.0073961522
0.010533699 0.008251172 0.0006580643 0.0016950105 0.00919458 6.8799395e-06 0.0017553231 0.006319596
-0.0039705965 -0.0082658855 8.409856e-05 0.00036046162 -0.0026861762 0.039075512 -0.101559974 3.623602e-06
0.007010138 -0.0015297065 0.022371031 -0.0023236624 -0.018545642 0.009590356 -0.005759012 -0.0016531944
0.016228328 -0.00046545148 0.0020805735 -0.002121145 -0.0030405552 -0.0050590015 0.00019805806 0.002443024
0.0013215927 0.060517184 -0.0834289 -0.0010164322 -0.00608767 0.004053674 -0.0011080612 0.011520729

embedding.0.bias f4 [40]
00000000: fe32 8eb7 a029 d8b5 cb0b 5938 b148 0fb2
00000010: cf8e 48b3 643c b634 f2de b0b2 7e0f 20b6
00000020: 90d0 6db2 11b3 6e33 e639 2036 9b0f 7333
00000030: 3710 6eb4 984e aeb1 20b9 8d31 637a b2b2
00000040: e879 ef2f 22c9 a3b5 2497 04b7 b030 7c36
00000050: fc52 8b33 02ea 5cb4 0c4d e0b6 dee9 be33
00000060: 3404 e1b1 9899 8ab1 20c2 85b0 68c1 67b4
00000070: 1fb2 7fb6 0add 6338 66df 8933 1371 ebb7
00000080: da61 b3b5 a2d6 0eb3 ba03 1f38 e4fd 1134
00000090: e4e6 1937 56e2 ba37 94be a1b3 90a3 2932
-1.6951464e-05 -1.6105369e-06 5.1747815e-05 -8.340224e-09 -4.6696012e-08 3.3944082e-07 -2.059048e-08 -2.3850876e-06
-1.3842637e-08 5.5576553e-08 2.387556e-06 5.659204e-08 -2.2171376e-07 -5.0730016e-09 4.1246864e-09 -2.0777582e-08
4.3560466e-10 -1.2202984e-06 -7.903003e-06 3.7579266e-06 6.487787e-08 -2.0574228e-07 -6.6846897e-06 8.890105e-08
-6.5488397e-09 -4.03379e-09 -9.732197e-10 -2.1583912e-07 -3.8101641e-06 5.4326876e-05 6.4201956e-08 -2.8066837e-05
-1.3365018e-06 -3.325716e-08 3.7912025e-05 1.3596542e-07 9.173269e-06 2.2278324e-05 -7.531813e-08 9.8742845e-09

embedding.1.weight f4 [40]
00000000: 9bb2 233d a17a af3d 41eb 083e d760 b63d
00000010: e1c6 1080 f83d bd3d 6fc8 af3d 912a b03d
00000020: f9bd c13d e324 0d3d b924 1d3d c5b6 023e
00000030: bad7 123d a68e 213d adf9 083e caeb 6b3c
00000040: 7572 153d dcb7 0e3e d232 743d 10d1 2d3d
00000050: 54fa ef3d 0313 c83d 96ed ea3d 5aff bd3d
00000060: d521 813d c74d 5b3d 3778 203d f612 1a3d
00000070: 3338 5d3d 9373 083d 30c5 2d3e 0a3c 3b3e
00000080: f85f 283d b291 b63d c1fb e33d 14e1 353d
00000090: d1ff 463d 4185 8a3d 99f3 333e 233b 3a3e
0.039965253 0.085683115 0.13370992 0.089051895 -1.540712e-39 0.09240335 0.085831515 0.08601869
0.094600625 0.034459006 0.0383651 0.12765034 0.035850264 0.03944268 0.13376494 0.014399478
0.036486108 0.13937324 0.05961878 0.042435706 0.11717668 0.09769251 0.11471097 0.0927722
0.06305281 0.05354097 0.039177146 0.03761574 0.054008674 0.033313345 0.16969752 0.18284622
0.041107148 0.08914508 0.111320026 0.044404104 0.04858381 0.067636974 0.17573394 0.18186621

embedding.1.bias f4 [40]
00000000: d347 e13b d598 53bd cb8b 16be e3c9 71bd
00000010: 46ee 0980 21a4 40bd 3c28 1dbd 56d8 cabd
00000020: 6e8b abbd e8a6 c9bb 4d6b b63b 412f f7bd
00000030: b768 06bc ef2a 10bc 49d3 06be 2628 0a3b
00000040: 0560 153c 6ba2 2dbe 333e 82bc ff7b 2c3b
00000050: 5dcc b7bd 2148 f7bd b7e9 3abe 817d a4bd
00000060: eea3 00bd 44f3 aabb b848 f23b 5bc7 0f3c
00000070: 4423 e3bc 0e92 f8bb cb2d 56be d360 80be
00000080: 0b85 20bc e9d8 8fbd e81d 34be eb3e 72bc
00000090: 9675 d2ba 34b5 aebc 6c31 73be 2f56 82be
0.006875017 -0.051659424 -0.14701764 -0.059030425 -9.11996e-40 -0.047031526 -0.03836845 -0.09904544
-0.083762035 -0.00615393 0.0055669905 -0.1206956 -0.008203677 -0.008799299 -0.13166536 0.002108106
0.009117131 -0.16956489 -0.0158988 0.0026319025 -0.08974526 -0.12074304 -0.18253218 -0.080317505
-0.031406336 -0.005216988 0.0073939227 0.008775557 -0.027726777 -0.0075857705 -0.20915906 -0.2507387
-0.009797345 -0.07023794 -0.17589533 -0.014785509 -0.0016056772 -0.021326639 -0.23749322 -0.25456378

embedding.1.running_mean f4 [40]
00000000: e0cb 8fb6 374a c0b5 8cfa ad35 70bf ad31
00000010: 48c2 b0b1 d3ec f5b3 2705 6b33 73e5 0d35
00000020: a8b1 7a33 7be8 f833 fcd7 b5b4 f20f 9233
00000030: ee51 e133 3e10 1cb3 3371 be33 9c93 34b2
00000040: 2104 13b4 4f46 2234 ca1b b335 cb6a eb33
00000050: e2f8 3a33 c6a6 c633 003d 8fb2 d8df e733
00000060: 611a 8c32 8b75 9433 d62d 86b3 e2ee 0b33
00000070: b08c 8435 68f7 a1b6 ef9a 0c34 5d88 4736
00000080: 20d7 d6b3 14df a833 30c9 b734 998d e333
00000090: 497f 1db6 90f4 0434 8849 2234 6fb5 e833
-4.2854663e-06 -1.4326714e-06 1.2962423e-06 5.0567266e-09 -5.1443614e-09 -1.14517796e-07 5.4719887e-08 5.2860486e-07
5.836924e-08 1.1590688e-07 -3.3871027e-07 6.801555e-08 1.0492282e-07 -3.6336353e-08 8.868155e-08 -1.05109415e-08
-1.3691944e-07 1.5113004e-07 1.3344627e-06 1.0962466e-07 4.3532857e-08 9.2504294e-08 -1.667513e-08 1.0797493e-07
1.631014e-08 6.913168e-08 -6.248199e-08 3.2580722e-08 9.875712e-07 -4.826976e-06 1.309488e-07 2.9732685e-06
-1.00042826e-07 7.863687e-08 3.423279e-07 1.0596268e-07 -2.3468913e-06 1.238243e-07 1.5114176e-07 1.08363444e-07

embedding.1.running_var f4 [40]
00000000: 8fef 193b c324 3f3b b92d 583b 3819 3f3b
00000010: 7ed5 bd21 d2e9 0b3b 751a 173b e543 063b
00000020: e8c0 553b 72af 1e3b a959 153b 39c4 753b
00000030: 8bfc 1b3b 4d46 233b b4bb 7b3b 1009 fb39
00000040: 59ef 1d3b 4162 913b 1b91 193b bc2c 1f3b
00000050: 03b2 4a3b 22a1 193b 355d 283b 4e8e 063b
00000060: 35a4 323b 47ab 1d3b 802d 193b 5f87 1b3b
00000070: 12f3 2c3b a9c4 0d3b e4ec 833b 3891 823b
00000080: 37ca 243b bae1 083b 4e64 243b 632b 213b
00000090: beed 193b d5e6 183b c4ef 933b b082 7f3b
0.0023488735 0.0029166199 0.0032986237 0.0029159319 1.2863649e-18 0.0021349085 0.002305654 0.0020487246
0.0032616202 0.002421346 0.0022789037 0.003750099 0.002380165 0.0024913729 0.003841144 0.00047881203
0.002409896 0.0044367616 0.0023432437 0.0024288138 0.0030928857 0.002344199 0.0025690321 0.0020531598
0.002725852 0.0024058388 0.0023373067 0.002373181 0.0026389998 0.0021632111 0.0040260423 0.0039845966
0.0025144944 0.0020886497 0.00250842 0.002459251 0.0023487653 0.0023330946 0.0045146663 0.0038987808

embedding.4.weight f4 [20, 40]
00000000: 6213 963d 71bf 253b ccd6 fdbc dfe1 c03b
00000010: 5a35 0a80 fdb0 913d 00e5 813d dd5c 0f3d
00000020: 1691 c23b a570 1abd c6f5 983d 2ae6 bebc
00000030: c0c6 15bd 5a0c 0cbd d838 bbbc 1e65 15bd
00000040: c56c 8d3d 23f7 26bd 607b 9d3d 855b a43d
00000050: 9b9c 90bb a7eb ea3c d99a e0b9 5d16 623d
00000060: f4ce 6fbc 9b9b ac3d 3eff 903d 1fa6 8a3d
00000070: d6e9 98bc fb33 12bd 39a9 2dbd 0610 29bd
00000080: d0b5 1fbd aad4 853d 8b86 a23c b45d 02bd
00000090: dcab b53d 166c 923d 4f64 57bd 106b 1abd
000000a0: 4bcd d1b7 1641 eeb7 764a 06b7 9063 ceb7
000000b0: baa5 77af 3c75 b2b8 e7bb cdb7 0a99 ddb5
000000c0: b683 46b7 fd90 e336 6040 27b7 a44e 8fb8
000000d0: 6605 2db7 4839 9ab6 0d72 abb6 482d 1a38
000000e0: 0dcd 0137 769a 66b7 66d6 4636 8cd7 1538
000000f0: f1a8 a2b6 ec25 c837 ca7f 5a37 15f4 d0b6
00000100: 0317 97b7 7d7a 07b8 974f 3c37 110d 8a37
00000110: 7f01 b5b7 160d 52b7 a0b5 97b3 5d1d c3b5
00000120: 4e32 4ab7 dba1 5c37 7a04 2eb6 ff55 f8b6
00000130: a6b0 4838 0a22 b035 4870 b4b7 fbd2 33b7
00000140: 4593 c539 0f14 2d39 6b20 8c38 c473 0238
00000150: 09fe d2af 0255 9839 9ef2 4239 fc78 ebb8
00000160: c558 6238 70ce 06b9 ec9a 6439 14e3 c139
00000170: e97d 84b7 ad11 1c37 9e77 9239 8af4 8cb9
00000180: 8293 0139 0f88 3139 bdbd dcb7 ec3b 01b9
00000190: d418 a439 c7d9 d4b9 99e5 07b9 0070 6436
000001a0: b2d5 d536 aaf8 2f39 d9d5 82b9 3dd2 42b8
000001b0: 9726 f738 9e95 9f36 11ce ee38 0422 2938
000001c0: 6a4f 02b9 ad62 77b9 480e 1ab8 add9 2439
000001d0: 62bd fa36 b578 22b9 5dad 4f39 cae1 d838
000001e0: 07ea a933 2893 9db3 46fb 4eb3 d921 12b4
000001f0: 5a41 5a30 17e4 82b3 c0d8 a533 a465 8bb3
00000200: 9bf6 bab3 5310 92b3 5655 4a34 7f8f 44b4
00000210: 3e98 e0b3 a26a b0b3 186e 7133 2079 b532
00000220: 777a fb33 db53 f632 4e5d c632 19dc 8834
00000230: 2b32 d2b2 2095 a2b3 e866 17b3 ee1a 21b2
00000240: 5fe0 2bb4 a8d1 c833 60b6 6f34 b0ff ee33
00000250: 4929 cab3 2f28 00b4 93e1 0eb1 4075 b832
00000260: 6e09 1db4 b6fb ce31 c21b 23b3 11f0 a0b3
00000270: 198e 9734 e513 fd33 a1e4 ea32 1e69 0033
00000280: 9c6d 61bc 933b 873d b919 4cbc 4c08 8b3d
00000290: 9a9a 0180 870f 983d a44c aa3d 7339 37ba
000002a0: 50c3 563d 93f1 e73c bffc 36bc 0171 bc3c
000002b0: 5dbb eb3c eae4 0d3d a7ed 893c 21b2 94bc
000002c0: 27b2 92bc cc05 04bc 32c6 633d 440b adbb
000002d0: a8e8 4d3d e5ce d7bc 8fcf b3bc 4a4e a23c
000002e0: cece 3a3d 1477 0d3d cce3 86bc 23c5 91bc
000002f0: cad9 763d a60a da3c 852b debc 309c a5bc
00000300: 362e fd3c 1d67 403d 4ff2 e8bc 1314 223d
00000310: 64fe 243c 1ee3 863d 3353 79bc bba0 d9bc
00000320: d27a dcb8 ed44 103a 48ae 1639 e887 483a
00000330: 0eef 87a9 0019 09b8 c22f 603a 7a98 24b8
00000340: 04ff ac38 5809 2738 4b1a e739 191e c939
00000350: bc75 feb8 ad85 47b8 37ec 94b9 7e97 72b9
00000360: 66ff 1f3a 6256 5839 1b03 dd39 b45e 6238
00000370: 7eb5 d6b9 b910 5eb9 48ff a1b8 74fb 3339
00000380: cffc 243a 6818 d439 d881 0c3a 6084 a739
00000390: 16f7 c639 20d8 07b8 2dab 1b39 deb4 1638
000003a0: 687b 143a 7a7f 9fb9 1584 07b7 f62d 9f38
000003b0: 12ec 1dba 4df7 8bb9 f15b 4b39 e7a0 0039
000003c0: af50 a138 a175 8f37 7276 8937 a4a9 96b7
000003d0: 6c31 92a4 2c47 4f38 2172 0839 308f 8c38
000003e0: 681b f4b7 bbd0 3339 6e32 4339 de78 54b9
000003f0: 6049 2f38 6517 8a38 0a28 af38 ec45 aa38
0.07327916 0.002529111 -0.030986212 0.005886301 -9.37494e-40 0.07113836 0.063425064 0.03500067
0.0059377057 -0.037705082 0.074687526 -0.02330311 -0.036566496 -0.034191467 -0.022854254 -0.036473386
0.06905512 -0.04076303 0.076895475 0.080252685 -0.0044132 0.02867682 -0.0004283998 0.05519711
-0.014636744 0.08428117 0.070799336 0.06769966 -0.01866619 -0.035694104 -0.04239771 -0.041275047
-0.03899175 0.06534703 0.019839546 -0.031827644 0.0887067 0.07149522 -0.052585896 -0.03769976
-2.5010339e-05 -2.8402119e-05 -8.004359e-06 -2.4603476e-05 -2.2523397e-10 -8.509538e-05 -2.4525403e-05 -1.6510323e-06
-1.1832386e-05 6.782006e-06 -9.968964e-06 -6.833419e-05 -1.03128605e-05 -4.596226e-06 -5.1094744e-06 3.6758633e-05
7.736741e-06 -1.37450315e-05 2.9629095e-06 3.5725112e-05 -4.8476436e-06 2.3859517e-05 1.3023566e-05 -6.227298e-06
-1.8011318e-05 -3.2300584e-05 1.1224204e-05 1.6456966e-05 -2.1577578e-05 -1.2520022e-05 -7.064523e-08 -1.4537178e-06
-1.2051851e-05 1.3150707e-05 -2.5930626e-06 -7.400987e-06 4.7848232e-05 1.3122929e-06 -2.1509957e-05 -1.0718354e-05
0.00037684492 0.00016506038 6.6817585e-05 3.110223e-05 -3.837928e-10 0.00029055035 0.00018591664 -0.00011228208
5.3965272e-05 -0.0001285614 0.00021801487 0.00036981015 -1.5794258e-05 9.30244e-06 0.00027936412 -0.00026885077
0.0001235735 0.00016930721 -2.6314397e-05 -0.00012324721 0.00031299016 -0.00040598048 -0.00012960135 3.403984e-06
6.372772e-06 0.00016781935 -0.0002495486 -4.6449004e-05 0.00011785066 4.755987e-06 0.00011387107 4.032442e-05
-0.0001242735 -0.00023592515 -3.672976e-05 0.0001572135 7.4726277e-06 -0.00015494491 0.00019805641 0.00010341739
7.912245e-08 -7.33765e-08 -4.8191644e-08 -1.3609623e-07 7.940081e-10 -6.095086e-08 7.722838e-08 -6.49118e-08
-8.706157e-08 -6.801624e-08 1.8843761e-07 -1.8306126e-07 -1.04585055e-07 -8.215035e-08 5.6212315e-08 2.1126255e-08
1.17103745e-07 2.8676302e-08 2.3092664e-08 2.5492116e-07 -2.4470031e-08 -7.5708385e-08 -3.525102e-08 -9.3775565e-09
-1.6007242e-07 9.351362e-08 2.2324957e-07 1.1129248e-07 -9.413868e-08 -1.1935548e-07 -2.0791944e-09 2.1473738e-08
-1.4625195e-07 6.0240053e-09 -3.797664e-08 -7.4942484e-08 2.822933e-07 1.17848494e-07 2.7345154e-08 2.9897926e-08
-0.013759043 0.0660316 -0.012457305 0.06788692 -1.47296e-40 0.074248366 0.08315399 -0.00069894566
0.05243236 0.028313434 -0.011168658 0.023003103 0.028775865 0.034642138 0.016836954 -0.018151345
-0.017907215 -0.008058023 0.055608936 -0.005280884 0.050270706 -0.026343772 -0.021949558 0.019812722
0.04560738 0.03453739 -0.016466044 -0.017794197 0.060266294 0.026616406 -0.027120361 -0.020216078
0.030905824 0.046973336 -0.028435854 0.039569926 0.010070417 0.06586288 -0.01521759 -0.0265659
-0.000105132945 0.0005503435 0.0001437004 0.0007649646 -6.036674e-14 -3.268663e-05 0.00085520383 -3.9242652e-05
8.2490995e-05 3.9824605e-05 0.00044079343 0.00038360132 -0.000121335936 -4.7569793e-05 -0.00028404754 -0.00023135354
0.0006103426 0.00020631545 0.00042154719 5.3970798e-05 -0.00040952483 -0.000211778 -7.724628e-05 0.00017164444
0.0006293775 0.00040453975 0.00053599244 0.0003195135 0.00037949596 -3.238779e-05 0.0001484572 3.5931233e-05
0.0005664141 -0.0003042182 -8.07738e-06 7.590272e-05 -0.0006024252 -0.000266964 0.0001939384 0.00012266972
7.692107e-05 1.7101704e-05 1.6386828e-05 -1.7960389e-05 -6.340113e-17 4.941893e-05 0.00013012487 6.702391e-05
-2.9099829e-05 0.00017148528 0.00018615436 -0.00020262922 4.1791587e-05 6.58471e-05 8.352108e-05 8.119256e-05

embedding.4.bias f4 [20]
00000000: 3ea9 fb35 ca19 c4b3 8801 0e35 d043 e6b5
00000010: 0e3a 8fb4 d67f a7b2 884c 35b5 34c3 8ab6
00000020: 50ee aab6 81ed 38b8 a73c d2b4 70ca 90b5
00000030: 7641 9d38 70d4 502f 2c40 07b8 f518 8036
00000040: 1060 0334 b0d2 32b4 2860 da36 ad22 0935
1.8750213e-06 -9.131652e-08 5.290135e-07 -1.7156071e-06 -2.6678066e-07 -1.9499492e-08 -6.753912e-07 -4.135445e-06
-5.094138e-06 -4.409021e-05 -3.9159679e-07 -1.0787753e-06 7.4985364e-05 1.8992963e-10 -3.2246273e-05 3.8176026e-06
1.2235273e-07 -1.665419e-07 6.5081003e-06 5.1086937e-07

embedding.5.weight f4 [20]
00000000: e0cb c33e 701c 5c35 0df5 c0b8 e1fc 1bb4
00000010: d360 673e be4c 2cb9 cbf4 81b9 0bf2 c839
00000020: 63ae 023a a8d3 08ba 9813 0539 d5b2 09ba
00000030: 189a 933e 8c06 d2b5 bdae 22b6 2981 7a34
00000040: 82c2 ce38 fda1 893e 479a 82ba b429 6f37
0.38241482 8.199777e-07 -9.200918e-05 -1.4527497e-07 0.2259553 -0.00016431787 -0.00024787182 0.0003832731
0.0004985092 -0.00052195275 0.00012691168 -0.00052527833 0.28828502 -1.5648125e-06 -2.4241592e-06 2.3330053e-07
9.859075e-05 0.268814 -0.0009964191 1.425522e-05

embedding.5.bias f4 [20]
00000000: 0c32 d13c 026b 19bb 913d 19bb 235e 19bb
00000010: 18e6 bb3a 4154 19bb dc5e 19bb 2a64 19bb
00000020: 6853 19bb 2b57 19bb 8852 19bb 6563 19bb
00000030: a053 92bb 1e46 19bb 786a 19bb b465 19bb
00000040: 8f45 19bb 67cd 683c 0a66 19bb e666 19bb
0.02553656 -0.002340973 -0.0023382644 -0.0023402057 0.0014335541 -0.0023396167 -0.0023402488 -0.002340565
-0.0023395661 -0.0023397903 -0.002339514 -0.002340519 -0.0044655353 -0.002338774 -0.0023409408 -0.0023406567
-0.0023387407 0.014209128 -0.0023406767 -0.002340728

embedding.5.running_mean f4 [20]
00000000: 1dcb 663c 7261 72b6 60cb 7537 06a2 95b5
00000010: 5ff6 243c 2c32 a538 7054 9d37 3842 8837
00000020: 9e30 ed37 70da 6039 04fd 48b8 8cc3 68b7
00000030: e1eb dd3b 1061 1433 85a6 3237 e3ae 53b5
00000040: ca7d cbb8 90cd 5dba 3a98 4339 c4c9 4ab4
0.014086512 -3.611753e-06 1.465049e-05 -1.114852e-06 0.010068505 7.877158e-05 1.8755178e-05 1.6243299e-05
2.827524e-05 0.00021443679 -4.7919355e-05 -1.3873807e-05 0.0067725037 3.4547213e-08 1.0648398e-05 -7.885812e-07
-9.703224e-05 -0.0008461112 0.00018653358 -1.8886118e-07

embedding.5.running_var f4 [20]
00000000: ed47 933a 5aef f52e 6448 eb31 abc0 1c27
00000010: deeb 4239 657c 4332 fe66 5d31 7516 9f32
00000020: 2b96 ad35 46b7 2135 777a e231 f372 0a33
00000030: 52f5 f338 d4d4 8c2a bd01 af2e 2673 c927
00000040: 3415 9132 72fc 1b39 9543 bd34 79c3 d72d
0.0011236646 1.11838275e-10 6.84763e-09 2.1753794e-15 0.00018589149 1.1378778e-08 3.2218277e-09 1.8520248e-08
1.2933209e-06 6.024387e-07 6.5913883e-09 3.2235175e-08 0.000116328374 2.5016675e-13 7.9583874e-11 5.591355e-15
1.6889864e-08 0.00014875995 3.5253166e-07 2.4529477e-11

cross_layers.0.weight f4 [20]
00000000: 3e0b deb8 d13a b838 6089 27b6 7df2 8238
00000010: 0346 fdb8 9eb7 0537 dffc 2ab7 3e54 c4b5
00000020: 8040 d433 a2b2 9b38 e0c3 26b6 f037 beb6
00000030: a6f9 44b9 1691 9f38 f457 64b7 785c 2db8
00000040: c215 83b7 cf78 74b7 2270 82b6 88f4 57b7
-0.00010587879 8.784759e-05 -2.4964902e-06 6.24405e-05 -0.00012077021 7.9701695e-06 -1.0191666e-05 -1.4627656e-06
9.883752e-08 7.424249e-05 -2.4849942e-06 -5.6689532e-06 -0.00018785018 7.608735e-05 -1.3610337e-05 -4.1332532e-05
-1.5626549e-05 -1.4571661e-05 -3.887356e-06 -1.2871933e-05

cross_layers.0.bias f4 [20]
00000000: b823 393c dfa5 93ba fd65 93ba 04a2 93ba
00000010: 683e c93a 0682 93ba a39f 93ba 889f 93ba
00000020: 4f85 93ba 258b 93ba d786 93ba 50a1 93ba
00000030: 2a66 3cba 9399 93ba 37a5 93ba ffa5 93ba
00000040: 5266 93ba 9349 e03b 85a0 93ba c6a5 93ba
0.01130002 -0.0011264643 -0.0011245605 -0.0011263494 0.0015353682 -0.001125396 -0.0011262785 -0.0011262754
-0.0011254939 -0.0011256678 -0.0011255395 -0.0011263285 -0.00071868545 -0.0011260979 -0.0011264448 -0.0011264681
-0.0011245704 0.006844708 -0.0011263049 -0.0011264614

cross_layers.0.layer_norm.weight f4 [20]
00000000: 33ab 5d3e d92a a13a 92b0 8a3a 23af a23a
00000010: 3835 3a3e cea4 813a 119d a53a fcfe a43a
00000020: 48a2 933a b33a 8d3a 1c74 8e3a 3b18 a63a
00000030: fe79 5f3e a1db a13a a656 a03a ccd6 a33a
00000040: 4ffb 533a c31e 483e 6923 a33a 5a21 a73a
0.21647339 0.0012296095 0.0010581187 0.0012411814 0.18184364 0.0009891035 0.001263531 0.0012588198
0.0011263574 0.001077494 0.0010868344 0.0012672016 0.2182388 0.001234878 0.0012232854 0.0012499928
0.0008086459 0.19542985 0.0012446466 0.0012751028

cross_layers.0.layer_norm.bias f4 [20]
00000000: e8bb de39 4ccc 08ba 17cc 08ba 13cc 08ba
00000010: 2120 163a 34cc 08ba b2cc 08ba 6dcb 08ba
00000020: e4cb 08ba bacc 08ba a3cc 08ba 21cc 08ba
00000030: 4653 143b dccb 08ba 04cc 08ba 87cc 08ba
00000040: 5fcc 08ba aca7 99ba 7ccc 08ba 00cc 08ba
0.0004248314 -0.0005218431 -0.00052184 -0.0005218398 0.00057268335 -0.0005218417 -0.000521849 -0.0005218301
-0.00052183704 -0.0005218495 -0.00052184815 -0.0005218406 0.0022632643 -0.00052183657 -0.0005218389 -0.0005218465
-0.0005218442 -0.0011722944 -0.0005218459 -0.00052183867

cross_layers.1.weight f4 [20]
00000000: c292 2339 a371 80b7 dcac 4a34 df55 2ab5
00000010: 5637 25b9 cadb 8f35 ec17 83b5 577d 3837
00000020: 4ee1 ffb4 1a94 4337 b61b 61b6 b656 2a37
00000030: f8eb 3bb9 35e0 9835 f1e1 af37 a246 6237
00000040: b09a 07b3 5827 1637 808e 00b8 80fd 10b5
0.00015599563 -1.5311705e-05 1.8875602e-07 -6.3454894e-07 -0.0001575624 1.0718297e-06 -9.767223e-07 1.0996438e-05
-4.7661382e-07 1.1657388e-05 -3.3543743e-06 1.0152979e-05 -0.00017921615 1.1390135e-06 2.0966838e-05 1.3487095e-05
-3.1572824e-08 8.949857e-06 -3.065029e-05 -5.401307e-07

cross_layers.1.bias f4 [20]
00000000: 4aab de39 22cc 08ba c7cb 08ba becb 08ba
00000010: a818 163a ddcb 08ba 58cc 08ba b3cb 08ba
00000020: 91cb 08ba 95cb 08ba 4ecc 08ba 83cb 08ba
00000030: c64f 143b 7ccb 08ba 1ccb 08ba decb 08ba
00000040: 0bcc 08ba 31a8 99ba 5fcb 08ba b3cb 08ba
0.0004247076 -0.00052184064 -0.00052183535 -0.0005218348 0.000572572 -0.0005218366 -0.0005218438 -0.0005218342
-0.0005218322 -0.00052183244 -0.0005218432 -0.0005218314 0.0022630556 -0.000521831 -0.0005218254 -0.0005218367
-0.0005218393 -0.0011723099 -0.0005218293 -0.0005218342

cross_layers.1.layer_norm.weight f4 [20]
00000000: cbd6 2a3e 9e19 063b 22f4 053b 40f0 053b
00000010: 91ee 243e 5f19 063b 2a11 063b 66db 053b
00000020: 2e17 063b 18f6 053b f514 063b d7d3 053b
00000030: 7731 3c3e 77c0 053b bcb3 053b facd 053b
00000040: cbda 053b c5ce 2b3e 04f6 053b 24c9 053b
0.166835 0.0020462046 0.0020439704 0.002043739 0.16106631 0.00204619 0.0020457008 0.002042496
0.0020460594 0.0020440873 0.0020459269 0.0020420456 0.18378244 0.0020408907 0.002040132 0.002041696
0.00204246 0.16778095 0.0020440826 0.0020414079

cross_layers.1.layer_norm.bias f4 [20]
00000000: a0eb 193a a0b8 03ba 8caf 03ba 23af 03ba
00000010: 5e9c 5d3a 3fab 03ba 95b7 03ba cd8f 03ba
00000020: acae 03ba 7ea7 03ba f1ab 03ba f392 03ba
00000030: cdaa 023b 67a3 03ba d284 03ba bd98 03ba
00000040: af8f 03ba 3928 8fba 5391 03ba 709c 03ba
0.00058715977 -0.00050247647 -0.0005023412 -0.0005023351 0.00084537815 -0.0005022771 -0.0005024609 -0.00050186814
-0.00050232816 -0.00050222117 -0.00050228747 -0.00050191506 0.001993823 -0.0005021602 -0.0005017045 -0.0005020013
-0.0005018664 -0.0010922021 -0.00050189084 -0.00050205644

cross_layers.2.weight f4 [20]
00000000: 177c 0b3a f0c2 e035 9412 19b5 7c21 bcb6
00000010: 3676 0bb9 ca89 c4b5 44a4 d9b5 c060 d133
00000020: 5089 27b5 4caa 86b6 15eb d7b6 98cd adb4
00000030: e777 49b9 a6e7 65b7 1c91 e1b5 10f7 84b7
00000040: 3076 b534 70a4 9538 4cc9 29b5 c8d2 9735
0.000532092 1.6746035e-06 -5.7023976e-07 -5.6067347e-06 -0.0001330011 -1.464324e-06 -1.6215567e-06 9.7499196e-08
-6.2412164e-07 -4.0133364e-06 -6.4348665e-06 -3.237335e-07 -0.00019213521 -1.37033985e-05 -1.6806039e-06 -1.5850674e-05
3.379987e-07 7.1355025e-05 -6.325033e-07 1.1311722e-06

cross_layers.2.bias f4 [20]
00000000: 02ed 193a a8b7 03ba 88ae 03ba 12ad 03ba
00000010: 8586 5d3a 5aaa 03ba b5b6 03ba b78e 03ba
00000020: b8ad 03ba 56a7 03ba e8aa 03ba fa91 03ba
00000030: 63a2 023b b1a3 03ba fa83 03ba 3b97 03ba
00000040: 698f 03ba bd23 8fba 6090 03ba 769b 03ba
0.0005871804 -0.00050246203 -0.00050232606 -0.0005023043 0.0008450526 -0.0005022638 -0.0005024479 -0.00050185196
-0.00050231395 -0.00050221884 -0.00050227204 -0.00050190056 0.0019933216 -0.00050216453 -0.00050169195 -0.00050197885
-0.0005018623 -0.0010920685 -0.0005018767 -0.0005020419

cross_layers.2.layer_norm.weight f4 [20]
00000000: 198b 093e 8dc5 243b d58d 213b c985 223b
00000010: e1d3 153e 20b3 223b 05dc 243b 06b5 193b
00000020: ea9f 233b bbbb 203b eb81 203b 59d2 1a3b
00000030: 873a 233e 4996 1e3b c0bc 163b 1e93 1b3b
00000040: b1e9 183b 18c5 183e fd34 1b3b 3dbb 1b3b
0.13431968 0.0025142164 0.002465119 0.002479898 0.14631607 0.0024826005 0.0025155556 0.0023453846
0.0024967142 0.0024525959 0.00244915 0.0023623912 0.15940295 0.0024198464 0.0023000687 0.0023738812
0.002333265 0.14918935 0.0023682707 0.0023762726

cross_layers.2.layer_norm.bias f4 [20]
00000000: 477b 863a be6c 07ba 9973 07ba 468c 07ba
00000010: dc0f 823a f689 07ba b86c 07ba b349 09ba
00000020: 0983 07ba 0475 07ba b2be 07ba 256a 07ba
00000030: d6dc f33a e276 07ba 6583 07ba a67c 07ba
00000040: e877 07ba cafd 8aba 4ca7 07ba ec76 07ba
0.0010260128 -0.0005166045 -0.00051670667 -0.00051707437 0.0009922939 -0.0005170399 -0.00051660417 -0.00052371173
-0.0005169367 -0.0005167278 -0.0005178257 -0.0005165658 0.0018605243 -0.0005167556 -0.00051694206 -0.00051684154
-0.0005167709 -0.00106042 -0.00051747705 -0.0005167562

cross_layers.3.weight f4 [20]
00000000: c758 083a a86b f0b6 758e c736 097d f236
00000010: 402b 8e38 0fe6 0637 e021 efb5 d00d f6b6
00000020: 0c72 0437 ccc2 ca36 194f b436 05c1 dbb6
00000030: f50d 99b9 d8e9 c336 3479 c236 6b7a 9736
00000040: 40d3 9436 49dd ec39 4631 9c36 c8aa fab6
0.0005201217 -7.16509e-06 5.9472463e-06 7.226718e-06 6.7791436e-05 8.040587e-06 -1.7816747e-06 -7.3329793e-06
7.894367e-06 6.0427465e-06 5.373626e-06 -6.549179e-06 -0.00029192833 5.838676e-06 5.7957604e-06 4.514402e-06
4.4353365e-06 0.00045178298 4.6548985e-06 -7.470462e-06

cross_layers.3.bias f4 [20]
00000000: f978 863a 826a 07ba d66f 07ba 8188 07ba
00000010: ab02 823a 5986 07ba bc6a 07ba 3147 09ba
00000020: 7e7f 07ba 3f71 07ba 58bc 07ba a367 07ba
00000030: 1dc7 f33a 1873 07ba af7f 07ba f178 07ba
00000040: ec74 07ba bff2 8aba 84a3 07ba a074 07ba
0.0010259441 -0.0005165712 -0.0005166506 -0.0005170182 0.0009919008 -0.00051698607 -0.0005165746 -0.00052367436
-0.0005168839 -0.00051667163 -0.0005177907 -0.00051652844 0.0018598769 -0.00051669916 -0.00051688676 -0.0005167863
-0.0005167264 -0.0010600908 -0.0005174207 -0.000516722

cross_layers.3.layer_norm.weight f4 [20]
00000000: 3f84 5e3e a02b b833 5f28 38b7 543a 6e39
00000010: 5469 463e 7ae0 5a38 46de ee35 a897 88ba
00000020: fbae 8439 fea7 a3b7 5789 deba 9ad4 5cb9
00000030: f0fe 3a3e db74 a0b6 f613 07b9 3230 f3b8
00000040: 8bb2 a1b8 2e8e 383e df6f a938 4090 2eb8
0.21730135 8.576103e-08 -1.0976654e-05 0.00022719178 0.19376117 5.218431e-05 1.7797072e-06 -0.0010421174
0.00025307373 -1.9509342e-05 -0.0016978186 -0.00021060035 0.18261313 -4.7819753e-06 -0.0001288204 -0.0001159612
-7.7103345e-05 0.18022987 8.0793856e-05 -4.1619176e-05

cross_layers.3.layer_norm.bias f4 [20]
00000000: d980 7c3a 659b a934 9eac 0037 9251 b5b7
00000010: ea06 513a 19b8 0db9 0ed2 f335 f515 493a
00000020: 8c93 0938 b0a0 a636 c4bf 31bb 7359 3238
00000030: 750a ae3a 54f7 5fb6 379f 95b8 a859 aab7
00000040: 042f 5937 2893 4bba 2a95 72b7 889f b9b5
0.0009632237 3.1591767e-07 7.669585e-06 -2.1614866e-05 0.00079737476 -0.0001351539 1.8166045e-06 0.00076708134
3.280076e-05 4.965892e-06 -0.0027122358 4.2521813e-05 0.0013278263 -3.3373553e-06 -7.13453e-05 -2.0307329e-05
1.2945155e-05 -0.00077657634 -1.4459054e-05 -1.3830004e-06

deep_layers.0.0.weight f4 [256, 20]
00000000: 71aa 142a 6949 a6a1 794d f1b7 a0b8 9aa6
00000010: df7b 37b5 18b5 182d 479b 09a2 a421 4fae
00000020: 153b abb2 2ceb 0125 1464 9925 e2fe 8ca9
00000030: ce7e 8e9d ee33 c034 28db 5faf 5025 3a21
00000040: a66e 6dae 442c 65a5 50cc f135 44a8 97a7
00000050: 38d3 9a32 90fa 5b20 b0ef 44b1 be1d 89b7
00000060: f739 1c33 898b 08ad e065 04b7 bbcd 322d
00000070: a603 58b3 f996 23b8 6749 0ba5 888d 7334
00000080: 308c 5332 04d7 5db7 be63 42a4 1615 89af
00000090: d4d1 a636 ad9c 58b7 6e62 8aab 609f 3f13
000000a0: 5a6f 019d 1fc3 8f22 f852 3423 7714 9f38
000000b0: 407e dd83 d003 af1e 319f c9af 3006 4fb2
000000c0: f000 d9ad 808c dc99 cade 92a3 7e81 6530
000000d0: 5a36 bc35 3f74 bfa9 5a03 11ae c685 0938
000000e0: 9ee3 6da4 e43a da34 4c4f 1337 5966 b526
000000f0: 05e5 76ac 7698 162b d8a3 b133 fa09 f236
00000100: 9ce1 0da4 781a 4331 80af bd32 ac97 0b36
00000110: da95 1bb2 4e0a a6af 394e 3aa8 7115 36ab
00000120: 95b2 8690 eeaf a1b5 9caa 3aab d03e a4a9
00000130: 7833 d8b0 24ad 43b8 cd77 d322 c0b8 bd1f
00000140: e2cd 1f35 d15a 3a1b 1620 6a32 0497 bea7
00000150: 8222 8c2f 604e 5818 9838 252d ce9c 9fae
00000160: 9ecb 5e9f 8e31 0423 76f4 bca7 60b6 932f
00000170: d5ad 5a27 6cfa 2eb5 1a4c b999 0458 8334
00000180: 0a5e 8d21 901f 212e 44e9 b1b4 e4db b329
00000190: c1aa 5835 6d34 cea6 c42c 13b3 6a3c 7bb8
000001a0: 08fc 39b8 4991 62b4 5ae4 a41b 6de0 02a5
000001b0: e55e 1d38 4818 3b21 d3c3 ebb7 7678 1a94
000001c0: 96a1 11b6 8063 c11c 01c8 0300 7b55 91b3
000001d0: 4534 9525 9767 aca5 ee3f 1328 f6e3 65b5
000001e0: f095 0b0d ba04 4aa6 8af6 1923 8f7d 7921
000001f0: 56db 0c2a 347f 1eb6 7e1c c835 2048 33a2
00000200: ee7a 6521 704f 6ab5 52bc a7b5 b066 8a1e
00000210: 85cd 17ad 1879 352c d62f 3a15 606e 49b5
00000220: c3d0 7034 201d df2a 74bc 271b 989d 980f
00000230: e002 6922 80e5 8e2b aed8 9aaa d264 b5b2
00000240: f80f 01b3 fc7a 052e c4b5 051a d2ad e1b4
00000250: cdd8 72a2 c04d 12b7 8459 a434 fab1 4e34
00000260: 0721 2f9b acd9 9126 7176 949e 7189 72b8
00000270: ba1c 9d2d 00d1 f495 463a ab21 d81d 7eb4
00000280: 9cd5 2eb2 ec09 0423 fe90 852f 3a77 5134
00000290: 4aa1 091a e380 88ac 02d2 67b1 4493 1996
000002a0: a62e 3017 d4a6 9bb5 d8d1 7802 28ea 6ab2
000002b0: a280 819a f0f6 b20e 322a d91b 583e f72e
000002c0: 74bc 4b22 18f4 f833 24a5 0528 3e93 9fb5
000002d0: 6011 ec28 c063 53b2 bf5e a922 e58c b231
000002e0: 347f 0126 6848 aa38 5aea f637 2e46 bb28
000002f0: a17d 2d34 d093 78a1 cc3e 4793 477b 5e30
00000300: 74f6 49aa c972 2d38 2cdd 2a16 4adc c6a2
00000310: 04cb 3f31 fc4b ca35 bab3 1187 e8d6 58ac
00000320: ac9a 2a36 6567 6c0f 67b0 ce37 e550 b690
00000330: dad6 5b31 100a cfaa db78 b8b2 2c71 6f34
00000340: 85aa c7a6 1eac 902f aa2a c1b4 60c6 f134
00000350: c589 2b86 7e81 91b6 98cc fcb8 3f6c ac30
00000360: 905f 1b27 0a5a 23aa 05f5 98b6 08a5 0cb7
00000370: 54c9 c2a3 00d0 1a26 b704 cd98 d8da 3499
00000380: ec15 ab2c 374c adb2 0739 b698 ec38 59a3
00000390: 30f0 db9b e425 b3b2 6b8b db98 6091 0435
000003a0: 0bdb 041a c8e9 8898 3023 6036 4d32 4230
000003b0: c133 42b4 fb62 8307 e87c 7a96 260d a9b2
000003c0: cf85 9724 0066 b912 c249 9937 de71 4732
000003d0: 161f f725 4316 9b8e a504 4821 3a51 80a8
000003e0: 1457 29b8 441b 8534 40a5 2408 ddab b224
000003f0: c4ee ac37 f06c 4c84 92b4 3426 daee b4b8
1.3204174e-13 -1.1268029e-18 -2.8765515e-05 -1.0735939e-15 -6.835307e-07 8.6804106e-12 -1.8649165e-18 -4.709623e-11
-1.9933887e-08 1.1268646e-16 2.6609085e-16 -6.261464e-14 -3.77182e-21 3.580057e-07 -2.0359592e-10 6.3068634e-19
-5.3985837e-11 -1.9877582e-16 1.8015362e-06 -4.2093353e-15 1.802401e-08 1.8632926e-19 -2.8658e-09 -1.6345522e-05
3.63743e-08 -7.761688e-12 -7.891533e-06 1.016381e-11 -5.0294737e-08 -3.9002833e-05 -1.2081198e-16 2.2682627e-07
1.2313691e-08 -1.3222689e-05 -4.215153e-17 -2.4935137e-10 4.9716127e-06 -1.2911082e-05 -9.83281e-13 2.4186167e-27
-1.7130575e-21 3.896682e-18 9.775389e-18 7.585523e-05 -1.3018198e-36 1.8530423e-20 -3.66748e-10 -1.2050393e-08
-2.467046e-11 -2.2804214e-23 -1.5923707e-17 8.3493734e-10 1.402291e-06 -8.5022694e-14 -3.297216e-11 3.278793e-05
-5.1583982e-17 4.0648513e-07 8.7803455e-06 1.2587139e-15 -3.5085834e-12 5.3502287e-13 8.272008e-08 7.2133234e-06
-3.07656e-17 2.839128e-09 2.2082304e-08 2.0800899e-06 -9.05626e-09 -3.0202546e-10 -1.0342036e-14 -6.4689145e-13
-5.312883e-29 -1.2046637e-06 -6.631724e-13 -7.293959e-14 -1.5730697e-09 -4.6652873e-05 5.731851e-18 8.0350257e-20
5.9531715e-07 1.5414904e-22 1.3627888e-08 -5.2899325e-15 2.549037e-10 2.7956915e-24 9.3917304e-12 -7.258337e-11
-4.7178757e-20 7.166228e-18 -5.2445527e-15 2.686873e-10 3.0347812e-15 -6.5184463e-07 -1.9159289e-23 2.446469e-07
9.579424e-19 3.6635195e-11 -3.3138542e-07 7.987342e-14 8.071475e-07 -1.4308331e-15 -3.426682e-08 -5.989933e-05
-4.434216e-05 -2.1100745e-07 2.7279093e-22 -1.1351741e-16 3.7520094e-05 6.33902e-19 -2.810537e-05 -7.79877e-27
-2.170074e-06 1.2797389e-21 3.47254e-40 -6.7676375e-08 2.58828e-16 -2.990744e-16 8.174002e-15 -8.5640875e-07
4.3013163e-31 -7.0089234e-16 8.346353e-18 8.4530657e-19 1.2510595e-13 -2.3617877e-06 1.4909454e-06 -2.4297206e-18
7.7750914e-19 -8.728739e-07 -1.2497278e-06 1.4653789e-20 -8.628991e-12 2.5788868e-12 3.7600137e-26 -7.503895e-07
2.2427689e-07 3.9632967e-13 1.3874809e-22 1.504906e-29 3.157891e-18 1.0153406e-12 -2.7506247e-13 -2.1117021e-08
-3.0049677e-08 3.034993e-11 2.7650584e-23 -4.2035987e-07 -3.291189e-18 -8.720381e-06 3.0612512e-07 1.9249993e-07
-1.4486332e-22 1.0120396e-15 -1.5719096e-20 -5.78253e-05 1.786159e-11 -9.888056e-26 1.1602836e-18 -2.366645e-07
-1.0176702e-08 7.157835e-18 2.4295582e-10 1.9508016e-07 2.8461224e-23 -3.8796618e-12 -3.37343e-09 -1.240571e-25
5.6927546e-25 -1.1596953e-06 1.8280385e-37 -1.3673834e-08 -5.356097e-23 4.411818e-30 3.5926907e-22 1.1243334e-10
2.7611396e-18 1.15928e-07 7.418792e-15 -1.1889276e-06 2.6208799e-14 -1.2304497e-08 4.590786e-18 5.1964997e-09
4.492826e-16 8.1197184e-05 2.9434614e-05 2.0791606e-14 1.6157584e-07 -8.4221297e-19 -2.5148292e-27 8.0938317e-10
-1.7937892e-13 4.1353316e-05 1.380228e-25 -5.3901248e-18 2.790956e-09 1.5072287e-06 -1.0961404e-34 -3.0814743e-12
2.5422005e-06 1.16556114e-29 2.4639257e-05 -7.191098e-29 3.1990823e-09 -3.677757e-13 -2.1475378e-08 2.2299781e-07
-1.3854618e-15 2.6315744e-10 -3.5980094e-07 4.5034085e-07 -3.2262743e-35 -4.3364116e-06 -0.00012054405 1.2545412e-09
2.1562376e-15 -1.4508547e-13 -4.558477e-06 -8.383075e-06 -2.1118788e-17 5.3711376e-16 -5.299602e-24 -9.349977e-24
4.862546e-12 -2.017451e-08 -4.710348e-24 -1.1775647e-17 -3.6385728e-22 -2.0855573e-08 -5.675095e-24 4.938538e-07
2.7473902e-23 -3.5391235e-24 3.3399083e-06 7.064827e-10 -1.8086486e-07 1.9768865e-34 -2.0234253e-25 -1.9680169e-08
6.571249e-17 1.1700286e-27 1.8273367e-05 1.1609215e-08 4.2868735e-16 -3.8231887e-30 6.7768783e-19 -1.4246081e-14
-4.0373838e-05 2.479302e-07 4.9546205e-34 7.748634e-17 2.0615182e-05 -2.4030106e-36 6.2694764e-16 -8.6275584e-05

deep_layers.0.0.bias f4 [256]
00000000: f2ce 15ac b004 dd9d f657 6f23 500a 66b0
00000010: 50de 22b2 6cfa 7c23 023a da35 2689 13b0
00000020: d785 a19f e859 9caa a265 832d 61b0 fd2a
00000030: e430 db29 5d96 98b1 0e52 2335 8354 85ae
00000040: 3ca2 c2b4 88ac 2230 7c85 e530 d8a3 5c37
00000050: da98 8fa7 14b4 b821 1e93 1324 24d6 e72e
00000060: e6a0 3238 2a90 9e32 966c 5f36 aa12 969c
00000070: 567a 0ab2 7492 cb2f 9e70 2535 9611 7d1d
00000080: f007 3fb6 8431 5a1f 507a a1ac 2254 c49f
00000090: b31d 32ac 7ab8 0728 c898 93a9 ef8d a9a7
000000a0: 03a9 23b3 abd8 0133 bdd2 13b4 44e3 7e22
000000b0: 6a67 ba36 2d25 3f37 30fd 8db1 962b 18b7
000000c0: 061d 6caf a5ae 4ba0 1f50 a32c 64b8 44a9
000000d0: 43f8 fb38 d23b b825 58fb 55ae 208f ea34
000000e0: b0dc 0830 c808 10b8 9acd 222e 4a60 c1a9
000000f0: 962f 0530 6b2b c8b1 7bb8 3faa 7619 f035
00000100: 10d1 78af ee1a 232c 54ce ad22 81af 05b8
00000110: 0e99 d199 4086 182d 151e 53b4 98a6 56b3
00000120: 600a ceb1 43c2 0d24 e450 2a30 fc66 4e29
00000130: 6c96 1529 c800 5629 55d7 7db0 b072 d5b2
00000140: 9391 be2c 8ae1 042e 4eb2 4429 185c 8d30
00000150: 6898 5cb1 b998 d899 78d6 7b2a 6a95 a4aa
00000160: 6074 2c36 645f 3137 8114 a0b7 1164 8b9c
00000170: 8fe9 8f2a 7488 25a8 798f 9a37 e4dc 1b2e
00000180: 2a6a 5129 e237 b233 520a 0d32 80a4 bf32
00000190: 0c8a 70b2 724b 65a5 5258 a120 0cb1 db0b
000001a0: eecb ee2e e6b1 4335 d6bc b1ac 7bd4 70a7
000001b0: 80ab 1c30 ccb1 cf36 8c40 ddaf fbdd ada2
000001c0: 70b5 e4b4 b8d7 8128 c4a9 83ab 6cac ff23
000001d0: 57a5 7326 3e3a c79a d2e1 8e1e f2fe 7137
000001e0: 30be b8b1 5849 e737 5a94 9430 6916 121a
000001f0: ac87 b737 95fc 4faf 4ec1 09b2 4409 aaaf
00000200: 5842 30a8 0ad7 32b5 724f 14b1 7086 68b1
00000210: a35f 95b7 2e6d 012d 0c4e 4b38 2c35 1e24
00000220: 085d a030 a0ed a526 1ceb 7fb8 b8b4 48ad
00000230: fe2b 95b4 0bb8 8935 4ec0 4a24 d39f bcac
00000240: 4c56 632e 9820 1b36 7078 2533 684c 90b1
00000250: d47f 3b31 6136 0db6 82ed 91ae 3456 8937
00000260: 40da be25 5830 69a7 c01a 8830 2aa0 ce36
00000270: bf7d 6329 28c4 dc2e f03a 50b6 aca0 8cac
00000280: dcd5 0b39 c828 1130 a11d b7b7 f615 b4ad
00000290: 56fe e7a7 7873 8b34 b171 b6b7 3659 72aa
000002a0: 561c 782f 0eb4 1f30 42c9 d933 9ed4 9037
000002b0: 2031 d834 9ccf 4635 d41a c4b6 3131 4a2b
000002c0: 8825 5a35 18d7 08a1 9d62 892e f168 49ad
000002d0: 30cd 369b 608a 0637 b928 15b6 a4d8 c5b0
000002e0: 2464 9431 c075 94a7 d8f7 2c2b a47c d1b6
000002f0: cdc4 a327 4eaf 21a4 8c44 ff32 c0e9 3c99
00000300: a0ed 4b36 44e8 a4ae 8c69 a6ab bbb5 af1b
00000310: dab5 6d37 bca1 a436 cba5 4bb3 20f6 8eab
00000320: c483 95a4 3685 e7a6 92ef 0b37 c80f d2b6
00000330: 1c4f 7cb4 0cfb f332 91b2 b237 3595 2431
00000340: cb1a eab1 f587 4f26 40c6 0533 c9a8 ee33
00000350: 2db3 06a8 e0d7 05b5 0ed7 1d9e 80fe 21b7
00000360: e976 b832 fba5 5137 c06c 7c98 3387 cc32
00000370: 9572 0025 b891 3034 2261 57b4 40c5 4ca3
00000380: 0c98 c135 8043 7e2e f5c3 cc30 147a be1e
00000390: 8a68 97ad 1734 fda5 ba1a b42d 54cc 8cb8
000003a0: 2c19 fe35 e8b6 ac37 903d 202c 5020 b0b0
000003b0: f43e b2b0 91bc 1327 10f3 6127 311c 219a
000003c0: 6d23 2136 1c1f e328 e68b 7234 6510 6ca3
000003d0: 52a0 8131 4801 ebb2 108a f9b2 f629 58af
000003e0: e6e0 b2b5 3ec4 cfb2 b872 2d36 d79c 08ae
000003f0: ac59 0124 98af 91a9 3241 31b3 2824 9f35
-2.1289051e-12 -5.850306e-21 1.29748424e-17 -8.368817e-10 -9.480189e-09 1.3713976e-17 1.6259148e-06 -5.367319e-10
-6.840757e-20 -2.7773552e-13 1.493811e-11 4.5064215e-13 9.734035e-14 -4.4408766e-09 6.0841637e-07 -6.063152e-11
-3.6253357e-07 5.918044e-10 1.6699881e-09 1.315117e-05 -3.9856195e-15 1.2515991e-18 3.2000157e-17 1.0542703e-10
4.2588355e-05 1.8459179e-08 3.3292795e-06 -9.930992e-22 -8.060473e-09 3.7029546e-10 6.163117e-07 3.3493363e-21
-2.8465838e-06 4.6204254e-20 -4.5894746e-12 -8.3148415e-20 -2.5311808e-12 7.534007e-15 -6.554615e-14 -4.7060808e-15
-3.810511e-08 3.023221e-08 -1.3767108e-07 3.4543732e-18 5.555271e-06 1.1393143e-05 -4.132424e-09 -9.070054e-06
-2.1474386e-10 -1.7252554e-19 4.641634e-12 -4.3680676e-14 0.00012014855 3.1959448e-16 -4.865383e-11 4.3690034e-07
4.979013e-10 -3.4340454e-05 3.7017146e-11 -8.587625e-14 4.845274e-10 -5.825702e-09 -1.7028212e-13 1.7888804e-06
-2.2629743e-10 2.3178642e-12 4.7110202e-18 -3.187312e-05 -2.1671912e-23 8.670009e-12 -1.966185e-07 -4.9977274e-08
-5.9965686e-09 3.0739047e-17 6.196059e-10 4.5830513e-14 3.3215116e-14 4.7518223e-14 -9.234687e-10 -2.4848617e-08
5.4162868e-12 3.0213644e-11 4.3675397e-14 1.0285275e-09 -3.2100846e-09 -2.239556e-23 2.2367687e-13 -2.923593e-13
2.5697736e-06 1.0572232e-05 -1.9083034e-05 -9.224115e-22 2.5563967e-13 -9.1889285e-15 1.842504e-05 3.543911e-11
4.6499405e-14 8.298936e-08 8.209627e-09 2.2310132e-08 -1.4001227e-08 -1.9888146e-16 2.7332906e-19 8.462212e-32
1.0859212e-10 7.2902037e-07 -5.0516076e-12 -3.3421877e-15 5.6996186e-10 6.189779e-06 -4.024553e-10 -4.7126775e-18
-4.2600323e-07 1.441543e-14 -9.355229e-13 2.7720179e-17 8.453164e-16 -8.2398566e-23 1.5128232e-20 1.44240785e-05
-5.3767266e-09 2.75715e-05 1.0810581e-09 3.0210195e-23 2.1878477e-05 -1.8916275e-10 -8.018402e-09 -3.0929403e-10
-9.784349e-15 -6.662309e-07 -2.1581994e-09 -3.3836862e-09 -1.7806718e-05 7.357044e-12 4.847166e-05 3.4305827e-17
1.1667973e-09 1.1513583e-15 -6.10157e-05 -1.1408811e-11 -2.778542e-07 1.0260859e-06 4.3964656e-17 -5.3610254e-12
5.169047e-11 2.3115772e-06 3.8526593e-08 -4.199638e-09 2.7284743e-09 -2.104229e-06 -6.6360265e-11 1.6371814e-05
3.3107638e-16 -3.2361453e-15 9.902905e-10 6.157924e-06 5.0513193e-14 1.0039286e-10 -3.1028721e-06 -3.9968775e-12
0.00013335742 5.2808646e-10 -2.1829097e-05 -2.0473383e-11 -6.439113e-15 2.5974782e-07 -2.1749032e-05 -2.1524869e-13
2.2565536e-10 5.8099736e-10 1.01414585e-07 1.7265145e-05 4.0268878e-07 7.406286e-07 -5.8443784e-06 7.1833083e-13
8.1265944e-07 -4.6363267e-19 6.247556e-11 -1.1448829e-11 -1.5120987e-22 8.01924e-06 -2.2226434e-06 -1.439521e-09
4.3187516e-09 -4.1205917e-15 6.145063e-13 -6.2431955e-06 4.545496e-15 -3.50598e-17 2.9717079e-08 -9.766578e-24
3.0387673e-06 -7.499115e-11 -1.1824305e-12 2.9068762e-22 1.4168641e-05 4.9064092e-06 -4.741541e-08 -1.015802e-12
-6.484167e-17 -1.6064952e-15 8.340825e-06 -6.260325e-06 -2.3498109e-07 2.8403086e-08 2.1302405e-05 2.3949955e-09
-6.8133423e-09 7.200181e-16 3.1146783e-08 1.11134405e-07 -7.477347e-15 -4.98605e-07 -8.355983e-21 -9.655603e-06
2.1474493e-08 1.2496016e-05 -3.2625141e-24 2.3810207e-08 1.1141052e-16 1.644429e-07 -2.0058772e-07 -1.11006315e-17
1.4423872e-06 5.7812866e-11 1.4898648e-09 2.0167523e-20 -1.7213137e-11 -4.3923801e-16 2.04755e-11 -6.713779e-05
1.8931801e-06 2.058917e-05 2.2771542e-12 -1.2814869e-09 -1.2969097e-09 2.050257e-15 3.1356787e-15 -3.3316792e-23
2.401149e-06 2.5215554e-14 2.2588901e-07 -1.2797057e-17 3.7726204e-09 -2.7358183e-08 -2.9050199e-08 -1.9659993e-10
-1.3327488e-06 -2.4187212e-08 2.5845784e-06 -3.106212e-11 2.804837e-17 -6.469754e-14 -4.127032e-08 1.1856946e-06
