models/dnc_model.pth (torch, 64526 bytes, 23 tensors)

cross_layers.0.weight f4 [20]
0	0xbe55fbb6	-0.20896801
1	0x3f9e7824	1.2380414
2	0x40221527	2.532541
3	0xbf353255	-0.70779926
4	0xbf398bc6	-0.724789
5	0xbf80a727	-1.0051011
6	0x3fa0dfcb	1.2568296
7	0xbf44714f	-0.76735395
8	0x3f2ae473	0.66754836
9	0x3dadc535	0.0848488
10	0xbfb6d78e	-1.4284532
11	0xbf5dd261	-0.8664914
12	0xbfe61eca	-1.7978146
13	0x3e284f3b	0.16436474
14	0xbeb1bdb9	-0.3471506
15	0x3f48334a	0.7820326
16	0xbf2092af	-0.6272382
17	0xbeaf946d	-0.34292927
18	0xbf0cd339	-0.550098
19	0x3fb9f14b	1.4526762

cross_layers.0.bias f4 [20]
0	0xbce35eac	-0.027755104
1	0x3d0c0c55	0.03419145
2	0xbc609430	-0.013707206
3	0xbd53f51d	-0.05174743
4	0x3d42cb50	0.047557175
5	0x3d0fc0b7	0.035095897
6	0x3d02b1ee	0.03190797
7	0xbcfda470	-0.030962199
8	0x3d07335e	0.033007972
9	0xbcfba353	-0.030717527
10	0x3cf2a878	0.029621348
11	0x3ce6df1d	0.02818256
12	0xbb7a6aae	-0.0038210559
13	0xbcacb4dc	-0.021082334
14	0x3d0d5671	0.034506265
15	0xbd0951f1	-0.03352541
16	0xbd547f86	-0.05187943
17	0xbd603635	-0.054739196
18	0x3d0821d6	0.033235393
19	0xbd034980	-0.032052517

cross_layers.1.weight f4 [20]
0	0xbfb559c0	-1.4168015
1	0x3de1aee5	0.110196866
2	0x3edf14bc	0.43570507
3	0x3ed5ea9f	0.41780564
4	0xbfa33975	-1.275191
5	0xbf25983a	-0.64685404
6	0x3e8d37f7	0.2758176
7	0x3db0d74c	0.086348146
8	0x3e4a8143	0.19775872
9	0xbf47b97d	-0.7801741
10	0x3f33da4b	0.70254964
11	0x3ed71e74	0.4201542
12	0xbfc1a814	-1.5129418
13	0xbe8c4c94	-0.27402174
14	0xbf6f0f0d	-0.9338234
15	0xbeb29fe8	-0.34887624
16	0x3fa2fabd	1.2732769
17	0x400462cf	2.0685308
18	0x3eaa29cf	0.33235022
19	0xbdbf8590	-0.09351647

cross_layers.1.bias f4 [20]
0	0xbd060a5d	-0.032724727
1	0x3d0e529a	0.034746744
2	0x3d260c77	0.04053923
3	0xbcfd7846	-0.03094114
4	0x3d156991	0.03647763
5	0x3d0d5550	0.03450519
6	0x3d0d8560	0.034551024
7	0xbcfafc62	-0.030637924
8	0x3d0bcd44	0.034131303
9	0xbd06601f	-0.032806512
10	0x3d120e91	0.035658423
11	0x3d0a79ea	0.033807673
12	0xbcdd6d35	-0.027029613
13	0xbcf0d5bb	-0.02939879
14	0x3d09f44f	0.033680256
15	0xbd0e7b1b	-0.03478537
16	0xbd007902	-0.031365402
17	0xbd06bba8	-0.032893807
18	0x3d0ad6fb	0.033896428
19	0xbd051783	-0.032493126

deep_layers.0.weight f4 [128, 20]
0	0x3df410e5	0.11917285
1	0x3d626676	0.055273496
2	0x3cbc36d6	0.022975367
3	0xbbd57d0f	-0.0065151523
4	0x3d746281	0.059664253
5	0x3e87b2c5	0.26503578
6	0x3e17097d	0.14749713
7	0xbe7205a5	-0.23634966
8	0x3e20735d	0.15669008
9	0xbc053cba	-0.008132154
10	0xbdb5227b	-0.08844467
11	0xbdcf5f9d	-0.10125659
12	0x3dbc61e9	0.091983624
13	0x3d379263	0.04481734
14	0x3e18771f	0.14889191
15	0xbddbf957	-0.10740917
16	0xbe0de0a2	-0.13855222
17	0x3c8478f8	0.016170964
18	0x3e41e60e	0.18935415
19	0x3e0a2192	0.13489369
20	0xbce4df11	-0.027938398
21	0xbe724ccf	-0.23662113
22	0x3d969c59	0.0735404
23	0x3c375eee	0.011192067
24	0xbd6661b0	-0.056245506
25	0x3d8f5ec0	0.07000494
26	0x3e6697e7	0.22518884
27	0xbd28d5cb	-0.041219514
28	0xbd4ce5ce	-0.050023846
29	0xbd9ae544	-0.0756326
30	0x3cafd2c8	0.021462813
31	0x3e33f149	0.17572512
32	0x3d5f37b0	0.054496467
33	0xbc1e76ba	-0.009671861
34	0x3d8f8e09	0.07009513
35	0xbd096e53	-0.03355248
36	0xbc41befc	-0.011825319
37	0x3ba91b06	0.005160692
38	0xbddbb28c	-0.107274145
39	0xbd681a7e	-0.05666589
40	0x3dcb16fd	0.09916494
41	0x3e10de3b	0.14147274
42	0xbe70393e	-0.23459336
43	0xbc8d0380	-0.017213583
44	0xbd8ac05d	-0.06774972
45	0x3d4ad57a	0.049519993
46	0x3baf419a	0.0053483965
47	0x3cd6e79a	0.026233483
48	0x3da12303	0.07868006
49	0xbd249a0c	-0.040185973
50	0x3da6cf87	0.081450514
51	0xbd9477a3	-0.072493814
52	0xbd3aa9b4	-0.045571998
53	0x3d9c8c8d	0.076439954
54	0x3c2e8cc1	0.0106536755
55	0x39c3e035	0.00037360346
56	0x3df725f1	0.120677836
57	0x3d087d3d	0.03332256
58	0x3dcdc0db	0.1004655
59	0x3db35377	0.08756154
60	0xbdbe77e2	-0.093002096
61	0xbd3077f2	-0.04308314
62	0xbe63ded8	-0.22252977
63	0xbc8333d7	-0.01601593
64	0xbe2aea2b	-0.1669089
65	0x3c4f8410	0.0126657635
66	0xbd67d3df	-0.05659854
67	0xbd4e6908	-0.050393134
68	0xbd90746e	-0.07053457
69	0xbe04df3e	-0.12975785
70	0x3dbe4ce8	0.092920125
71	0xbda253b1	-0.07926119
72	0x3d5f1d11	0.05447108
73	0xbe057af7	-0.13035189
74	0x3ca4a193	0.020096576
75	0x3e746b31	0.23869015
76	0x3e0242cb	0.12720792
77	0x3d4ed58f	0.050496634
78	0x3c81e20a	0.015854854
79	0xbcf01565	-0.029307077
80	0x3d88ab26	0.06673269
81	0x3c34ee71	0.011043177
82	0x3dec2950	0.11531317
83	0x3dfbe95c	0.12300369
84	0x3d665a2c	0.05623834
85	0x3e070ea8	0.13189185
86	0xbcfdf3d5	-0.031000057
87	0xbe290c9b	-0.16508715
88	0xbdd25868	-0.102707684
89	0xbe1caa22	-0.15299276
90	0xbdf3ca75	-0.1190385
91	0xbdd4623c	-0.10370299
92	0x3db6673e	0.08906411
93	0x3c0514f8	0.008122675
94	0x3c6dbf0c	0.014510881
95	0xbe038c44	-0.12846476
96	0xbd9d490b	-0.076799475
97	0xbcad400f	-0.02114871
98	0x3d12123c	0.03566192
99	0x3d8e0db1	0.06936205
100	0x3d0c7e23	0.03429998
101	0xbdb01de3	-0.085994504
102	0x3d190587	0.037358787
103	0xbac5175b	-0.0015036868
104	0xbdece28e	-0.115666494
105	0x3d84ab99	0.06478042
106	0x3cb8153b	0.022471061
107	0xbd5cbf2d	-0.053893257
108	0xbc81691e	-0.015797194
109	0x3d53b913	0.051690172
110	0xbb057077	-0.0020361224
111	0x3e655e13	0.22399168
112	0x3cf4fdd5	0.029906193
113	0x3d5a77c8	0.05333689
114	0x3d46f7c3	0.048576128
115	0xbd8a742c	-0.06760439
116	0xbdcf795a	-0.10130568
117	0x3d0755a4	0.033040658
118	0xbe3ae74c	-0.18252295
119	0x3e11c0d9	0.14233722
120	0xbda28c16	-0.079368755
121	0x3d35b989	0.044366393
122	0x3e4009e6	0.18753776
123	0x3c43b556	0.011945089
124	0x3df46414	0.11933151
125	0xbc243c83	-0.010024193
126	0xbd9aeffb	-0.07565304
127	0xbd753677	-0.059866395
128	0x3dbac588	0.09119707
129	0x3e5fe8a2	0.21866086
130	0x3e175df1	0.1478193
131	0xbd844eb3	-0.06460323
132	0xbe55085d	-0.20803972
133	0xbd722fed	-0.059127737
134	0xbda8b9fa	-0.08238597
135	0xbe0ff647	-0.14058791
136	0xbdf1b40a	-0.11801918
137	0x3e5204bc	0.20509619
138	0x3d511325	0.05104365
139	0x3e356560	0.17714453
140	0xbdd39424	-0.1033099
141	0x3dde7ea7	0.10864001
142	0x3db78480	0.08960819
143	0xbc238df4	-0.009982575
144	0x3e062dc8	0.13103402
145	0x3d687f35	0.05676194
146	0xbc302c1e	-0.010752706
147	0xbc503ce4	-0.01270983
148	0x3cd774ca	0.026300807
149	0xbe268fd3	-0.16265802
150	0x3d5a9cb9	0.05337212
151	0xbe7a69d6	-0.24454436
152	0xbcc18def	-0.02362725
153	0xbcffc92d	-0.031223858
154	0xbe44520e	-0.19171926
155	0xbe0c3973	-0.1369379
156	0xbd851699	-0.06498451
157	0xbc6969b0	-0.014246389
158	0xbe22144f	-0.1582806
159	0xbd846fff	-0.06466674
160	0x3db93c9c	0.090447634
161	0xbd19375d	-0.037406314
162	0xbe387cbc	-0.18016332
163	0xbdd258a5	-0.10270814
164	0xbc857b09	-0.01629402
165	0x3e0cdbf5	0.13755782
166	0x3df18012	0.117920056
167	0xbe330ab3	-0.1748455
168	0x3d4d86c8	0.050177366
169	0x3cd78253	0.02630726
170	0x3d02f38c	0.031970546
171	0x3e3fe807	0.18740855
172	0x3e4ae8ce	0.1981537
173	0x3ca9ed6e	0.020743098
174	0xbe26b934	-0.16281587
175	0xbe063cca	-0.13109127
176	0x3e0edaa1	0.13950588
177	0x3de4851a	0.111581996
178	0xbdbbdf37	-0.09173434
179	0x3ca12ac8	0.01967372
180	0x3bc84d1c	0.006112708
181	0xbd69fdfc	-0.057126984
182	0x3be93908	0.0071173944
183	0x3c6fac9b	0.014628555
184	0x3ca60944	0.02026809
185	0xbc9f95de	-0.019480642
186	0xbd2f2466	-0.04275932
187	0xbdb348f0	-0.08754146
188	0x3bebb1a9	0.0071928096
189	0xbdf279ac	-0.11839613
190	0x3d0cab81	0.034343246
191	0xbe095b0d	-0.1341364
192	0xbc7d5417	-0.015461943
193	0x3d3b8b4d	0.045787144
194	0xbdc8f1ff	-0.09811782
195	0x398a364a	0.0002636186
196	0x3d829864	0.063767225
197	0x3c2faf8e	0.010723008
198	0x3ead2627	0.3381817
199	0x3d849ce5	0.06475238
200	0x3de98f7f	0.11404323
201	0xbdc747e9	-0.09730513
202	0x3e225a16	0.15854678
203	0xbd6b1ed1	-0.057402436
204	0xbe360e72	-0.17778948
205	0xbd4deec7	-0.050276544
206	0xbd825d72	-0.063654795
207	0x3e6653ac	0.22492856
208	0x3c4c9d51	0.012488679
209	0xbe418250	-0.18897367
210	0xbb200632	-0.0024417755
211	0xbe429f51	-0.19006087
212	0xbd8af8d2	-0.0678574
213	0x3e491839	0.19638146
214	0x3cae35d1	0.021265896
215	0xbcd359a1	-0.025799574
216	0x3dc23cd8	0.09484261
217	0x3d88cdb4	0.0667986
218	0xbd9d9a5a	-0.07695456
219	0xbc4ad9a1	-0.012380988
220	0x3e02a4fb	0.12758248
221	0x3e3048c5	0.1721526
222	0xbe34f8f2	-0.1767309
223	0xbdcf4e63	-0.10122373
224	0x3e09cc75	0.134569
225	0xbcdaf92e	-0.026730146
226	0xba17ee85	-0.0005795735
227	0xbdcccd3a	-0.10000081
228	0x3e3b67aa	0.18301263
229	0xbe09d035	-0.13458331
230	0x3de251cb	0.11050757
231	0xbdbaddb5	-0.091243185
232	0xbd9137ae	-0.07090698
233	0x3d4b93f3	0.049701642
234	0xbc08d393	-0.0083512245
235	0xbd9cb1d4	-0.076511055
236	0x3d9b4e47	0.075832896
237	0xbcc0ef29	-0.02355154
238	0xbd1b1d31	-0.037869636
239	0x3cd230dd	0.025658065
240	0xbd0103b0	-0.031497657
241	0x3cbd895e	0.02313679
242	0x3bbdafaf	0.0057887654
243	0xbd099532	-0.03358955
244	0xbdeecea0	-0.11660504
245	0x3cc35fbe	0.023849364
246	0x3dcb8ff2	0.09939565
247	0xbd358a3c	-0.044321284
248	0x3e49cfab	0.19708125
249	0x3de91b1b	0.11382123
250	0xbe18e9e1	-0.14932968
251	0x3d955c0b	0.072929464
252	0xbd4ecefc	-0.050490364
253	0x3dc0252a	0.093820885
254	0x3dacc2d5	0.08435599
255	0xbcc9abee	-0.024618115

deep_layers.0.bias f4 [128]
0	0xba91a043	-0.0011110384
1	0xbb863fde	-0.004096969
2	0x3afd777a	0.0019337975
3	0x3b678764	0.0035328502
4	0x3acaefe1	0.0015482866
5	0x3b37c57d	0.0028041296
6	0xbc4d5d10	-0.012534395
7	0x3b050c77	0.002030162
8	0xbb312de1	-0.0027035403
9	0xbb3d0636	-0.0028842813
10	0xb72f1aad	-1.0437024e-05
11	0x3c0d50d5	0.008625229
12	0x3a8dbf58	0.0010814471
13	0x3ac199b6	0.0014770541
14	0x3b141b8d	0.002259943
15	0x3c4af209	0.012386807
16	0xbbce8652	-0.0063026333
17	0xbb2abe87	-0.0026053505
18	0xbc3a4c1b	-0.011370684
19	0x3bad57ce	0.005290008
20	0x3c0e27d0	0.008676484
21	0x3bd79779	0.0065793362
22	0x3b648ff6	0.0034875846
23	0x3b3ae211	0.0028516094
24	0x3a401cb1	0.0007328494
25	0xbb53e1fb	-0.003233074
26	0x3b4b6321	0.0031034427
27	0xbb333092	-0.0027342183
28	0x3bf40f1b	0.00744809
29	0x3bf5b909	0.0074988646
30	0xbbc02bc4	-0.0058645923
31	0x3c1aad1e	0.009440688
32	0xbbbdb14c	-0.0057889577
33	0xb9b2b93c	-0.00034088816
34	0x3c304e90	0.010760918
35	0xbb997bf7	-0.004683967
36	0x3c67f2b1	0.014156983
37	0xbc0936fa	-0.008374924
38	0x3bcba1ce	0.006214357
39	0xbbccfb72	-0.0062555606
40	0x3c203ce5	0.009780143
41	0xbb6250e4	-0.0034533078
42	0x3bbd2d60	0.0057732314
43	0x3bee65b8	0.0072753094
44	0x3b1a4171	0.0023537541
45	0x3c07ca86	0.008288031
46	0x3b599f04	0.0033206353
47	0xba2c3ac5	-0.00065700366
48	0x3aa4e963	0.0012581762
49	0x3b725017	0.0036974007
50	0x3b96f20e	0.004606492
51	0x3a360e67	0.0006944895
52	0x39e441dd	0.0004353662
53	0xbbd375af	-0.006453238
54	0x3b082e31	0.0020779485
55	0xbb17a130	-0.0023136847
56	0x3c0cb924	0.008589063
57	0xbc2c050c	-0.01049925
58	0xbb1a81e6	-0.002357596
59	0xbb82cb56	-0.0039915247
60	0xbb7acada	-0.0038267882
61	0x388b6a36	6.64782e-05
62	0x3a594723	0.0008288493
63	0x3c07bd93	0.008284944
64	0x3b5e2d2a	0.0033901432
65	0x3c380054	0.011230547
66	0xbb60f189	-0.0034323654
67	0xbb72fe3d	-0.0037077807
68	0xb99623be	-0.0002863686
69	0xbb580209	-0.0032960197
70	0xbab98e01	-0.00141567
71	0x3aedc931	0.0018141625
72	0x3c01942c	0.007908862
73	0x3bc179f1	0.005904429
74	0x3bda1134	0.006654883
75	0xba01152d	-0.0004924115
76	0xbb9a5606	-0.004709962
77	0x3c1f2111	0.0097124735
78	0xbbecfbfd	-0.007232188
79	0x3b371c66	0.002794051
80	0xbbaefc4c	-0.0053401347
81	0xbacbcd50	-0.0015548859
82	0x3b41f023	0.0029592596
83	0x3b4afd27	0.0030973644
84	0xbaaebf86	-0.0013332225
85	0x3b83b178	0.0040189587
86	0xbb498f7d	-0.0030755692
87	0xbb421ce1	-0.0029619264
88	0x3b8d068d	0.0043037594
89	0x3b6a78ca	0.0035777562
90	0xbbc61162	-0.0060445527
91	0x3b773d54	0.0037725763
92	0xbb9e192f	-0.0048247795
93	0x3b0bc75f	0.0021328551
94	0xbba8d9b3	-0.005152905
95	0xbbe2f8c8	-0.0069266297
96	0xbc0c2bbd	-0.00855535
97	0x3b815a10	0.003947504
98	0xbb3869b1	-0.002813917
99	0xbc032380	-0.008004069
100	0xb741b8b9	-1.15467055e-05
101	0x3b8d3305	0.0043090605
102	0xbbf2e5d2	-0.0074126506
103	0x3af50ae9	0.0018695268
104	0x3bd30419	0.0064396975
105	0x3bf3d6da	0.007441384
106	0xbbab1051	-0.005220451
107	0x3ad092d7	0.0015912902
108	0x3c1fd0e7	0.009754396
109	0xbabdb2b6	-0.0014472816
110	0xba8ec345	-0.0010891935
111	0x3c01896e	0.007906301
112	0xbc1190dc	-0.008884635
113	0xba9b4a77	-0.0011847754
114	0xbbee18ca	-0.0072661387
115	0xbc1eb012	-0.009685533
116	0x3aeb3d17	0.0017947283
117	0x3c1a8fa8	0.009433664
118	0xba68a957	-0.0008875331
119	0xbb9756fd	-0.004618524
120	0x3bfe9d8d	0.0077702464
121	0x3c070a8c	0.008242261
122	0x3a466681	0.0007568375
123	0xbbb92778	-0.005650457
124	0xbc236233	-0.009972143
125	0x3bcd1cc9	0.006259535
126	0x3c02a492	0.007973807
127	0x3a5b1f93	0.0008358892

deep_layers.1.weight f4 [128]
0	0x3f7c4f7a	0.9855877
1	0x3f817e6a	1.0116704
2	0x3f80c64a	1.0060513
3	0x3f808192	1.0039542
4	0x3f80bc3c	1.0057445
5	0x3f83ab62	1.0286677
6	0x3f832d4a	1.0248196
7	0x3f805f5a	1.0029099
8	0x3f7f31b9	0.99685246
9	0x3f856902	1.0422671
10	0x3f7dfc53	0.9921314
11	0x3f8051f4	1.002501
12	0x3f805619	1.0026275
13	0x3f7ba63c	0.9830053
14	0x3f7d27dd	0.9888895
15	0x3f814a34	1.010077
16	0x3f7d73ca	0.99004805
17	0x3f80c2c9	1.0059444
18	0x3f808d83	1.0043186
19	0x3f7a4d70	0.9777441
20	0x3f81dc67	1.0145386
21	0x3f81322c	1.0093436
22	0x3f7f11f0	0.99636745
23	0x3f80afea	1.0053685
24	0x3f817ef1	1.0116864
25	0x3f7d2265	0.98880607
26	0x3f7dbf18	0.9911971
27	0x3f81fdd8	1.0155592
28	0x3f8228f9	1.0168754
29	0x3f7dabbe	0.9909018
30	0x3f7db041	0.9909707
31	0x3f8019d0	1.0007877
32	0x3f7e8776	0.99425447
33	0x3f814350	1.0098667
34	0x3f801e4a	1.0009243
35	0x3f805301	1.0025331
36	0x3f7f5c29	0.9975
37	0x3f7e958a	0.9944693
38	0x3f7f63a2	0.997614
39	0x3f826544	1.0187154
40	0x3f7a7cf0	0.9784689
41	0x3f7ecc92	0.995309
42	0x3f7e9c1b	0.9945695
43	0x3f7dca13	0.99136466
44	0x3f8022e2	1.0010645
45	0x3f7e419b	0.99318856
46	0x3f7f3909	0.99696404
47	0x3f7ec009	0.9951177
48	0x3f800ab2	1.0003264
49	0x3f7ea687	0.9947285
50	0x3f7b2f53	0.98119086
51	0x3f804049	1.0019618
52	0x3f81391a	1.0095551
53	0x3f7ff044	0.9997599
54	0x3f7f8e57	0.9982657
55	0x3f81bcac	1.0135703
56	0x3f7ea22e	0.99466217
57	0x3f8047db	1.0021929
58	0x3f80ff8b	1.0077986
59	0x3f826129	1.0185901
60	0x3f7beea5	0.9841102
61	0x3f7e419b	0.99318856
62	0x3f847950	1.0349522
63	0x3f7a98aa	0.97889197
64	0x3f7f8e07	0.9982609
65	0x3f7ed0a9	0.9953714
66	0x3f8001e3	1.0000576
67	0x3f7a5f5e	0.9780177
68	0x3f80aea3	1.0053295
69	0x3f8189ea	1.0120213
70	0x3f835a19	1.0261871
71	0x3f809526	1.0045516
72	0x3f7d16ad	0.98862725
73	0x3f7e0a5a	0.99234545
74	0x3f81a411	1.0128194
75	0x3f83e857	1.030528
76	0x3f7d27dd	0.9888895
77	0x3f81038f	1.0079211
78	0x3f7f7aea	0.99796927
79	0x3f829e36	1.0204532
80	0x3f7f7f81	0.9980393
81	0x3f7c74a2	0.9861547
82	0x3f7c569c	0.98569655
83	0x3f7df741	0.99205405
84	0x3f7fec60	0.99970055
85	0x3f80093d	1.0002819
86	0x3f7f1608	0.9964299
87	0x3f807653	1.003611
88	0x3f81e07c	1.0146632
89	0x3f7dc5d0	0.9912996
90	0x3f8183c9	1.0118343
91	0x3f7f1e98	0.9965606
92	0x3f8037e2	1.0017054
93	0x3f80a097	1.0049008
94	0x3f7b797a	0.98232234
95	0x3f80d3b2	1.0064604
96	0x3f7c0ccc	0.98457026
97	0x3f7ee06c	0.9956119
98	0x3f7d1c72	0.9887153
99	0x3f7f34cc	0.99689937
100	0x3f7c47f5	0.985473
101	0x3f805160	1.0024834
102	0x3f806a14	1.0032372
103	0x3f7fda92	0.99942887
104	0x3f82b300	1.0210876
105	0x3f7fb83a	0.9989048
106	0x3f7ee56d	0.99568826
107	0x3f7e3d86	0.9931263
108	0x3f798197	0.97463363
109	0x3f7e0d14	0.99238706
110	0x3f7e75b3	0.99398345
111	0x3f80a3e3	1.0050014
112	0x3f8163a9	1.0108539
113	0x3f80035a	1.0001023
114	0x3f7e2934	0.9928162
115	0x3f813193	1.0093254
116	0x3f7e29f1	0.9928275
117	0x3f80829e	1.0039861
118	0x3f7f2a8d	0.996743
119	0x3f7c2493	0.9849331
120	0x3f7d3dd5	0.98922473
121	0x3f7fde2a	0.9994837
122	0x3f80f875	1.0075823
123	0x3f84c470	1.0372448
124	0x3f7e0ced	0.99238473
125	0x3f7ec5b4	0.9952042
126	0x3f7fd4bb	0.99933976
127	0x3f7ceb4e	0.98796546

deep_layers.1.bias f4 [128]
0	0xbbd8cb64	-0.006616043
1	0x3becb43b	0.0072236336
2	0xbb3ff372	-0.0029289392
3	0x3bdfc91b	0.0068293936
4	0x3c3beecc	0.011470508
5	0x3ca5ae33	0.020224666
6	0x3c030c3a	0.0079985205
7	0x3c043ffa	0.008071894
8	0xbb5506c3	-0.003250525
9	0x3cd3b2fe	0.025842186
10	0xba0fddd7	-0.0005488074
11	0xbaa1c1b8	-0.0012341058
12	0x3c09e6da	0.008416856
13	0xbc6a54e7	-0.014302469
14	0xbc542d15	-0.0129502015
15	0x3c045be8	0.008078553
16	0xbb575793	-0.0032858595
17	0x3b57a367	0.0032903792
18	0x3add3bf7	0.0016878833
19	0xbc7d09cf	-0.015444233
20	0x3c21d1f6	0.009876719
21	0x3bad88d6	0.005295853
22	0xbc312868	-0.010812856
23	0xba830c3c	-0.0009998153
24	0x3c210ca0	0.00982967
25	0xbc382ef9	-0.011241668
26	0xbc648e48	-0.013949938
27	0x3c805e86	0.015670072
28	0x3bd5c1fd	0.0065233693
29	0xbc7c0340	-0.015381634
30	0xbb8ac3a9	-0.0042347503
31	0xbb140a0f	-0.0022589003
32	0xbba24e80	-0.0049532056
33	0x3b6789b4	0.003532988
34	0xbb571e1d	-0.0032824345
35	0x3b9da417	0.004810821
36	0xba618571	-0.0008602953
37	0xbb65d583	-0.003506989
38	0xbb987524	-0.004652636
39	0xbbfcd97a	-0.007716355
40	0xbca59e23	-0.020217007
41	0xbc3ad6f6	-0.01140379
42	0xbbe5fe71	-0.007018857
43	0xb9fe8c8c	-0.0004855137
44	0x3c190f89	0.009342083
45	0xbbdc7920	-0.0067283064
46	0xbb5d47c2	-0.0033764695
47	0x3b4235b5	0.0029634063
48	0x3a41e6bb	0.0007396747
49	0xbc84ced5	-0.016211906
50	0xbc93a6ba	-0.018023837
51	0xbb88097a	-0.0041515203
52	0x3bfc3f48	0.0076979734
53	0xbc2432da	-0.01002189
54	0xba260aba	-0.0006333996
55	0x3ba88a54	0.005143443
56	0xbbe10d0c	-0.0068680104
57	0xba9eb36a	-0.0012107913
58	0x3bd2c7eb	0.0064325235
59	0x3b38cef4	0.0028199526
60	0xbc84b094	-0.01619748
61	0x3b47c17a	0.0030480311
62	0x3ca8ddb9	0.020613538
63	0xbcc8d279	-0.024514424
64	0xbb76ce84	-0.0037659714
65	0xbc962f56	-0.018333118
66	0xba41827c	-0.00073818094
67	0xbcbc5c97	-0.022993369
68	0x3b8bf7ba	0.0042714747
69	0xbbed3718	-0.0072392337
70	0x396727ca	0.000220447
71	0xbc99bc94	-0.018766679
72	0xbc60d2fe	-0.013722179
73	0xbbf223d4	-0.007389525
74	0x3b9114df	0.004427537
75	0x3c71304f	0.01472099
76	0xbc4ee476	-0.0126277115
77	0x3c4b5858	0.0124111995
78	0xbc51076d	-0.012758118
79	0x3cc89a45	0.024487624
80	0x3b2e085a	0.002655527
81	0xbc435ee0	-0.011924475
82	0xbc55eaac	-0.013056438
83	0xbbd470e4	-0.006483184
84	0xbbabcfc7	-0.005243275
85	0x3b7dcaac	0.0038725538
86	0xbbb0efff	-0.0053997035
87	0x3b95fd75	0.0045773336
88	0x3bd0b972	0.006369763
89	0xbb716951	-0.0036836455
90	0x3b475b8c	0.0030419556
91	0xbc1b7dcb	-0.009490441
92	0xbb916c8c	-0.0044379886
93	0xbc817e30	-0.015807241
94	0xbc112dc2	-0.008861007
95	0x3b862185	0.0040933513
96	0xbc463ad2	-0.012098985
97	0xbb1cfc6f	-0.0023954173
98	0xbc342be4	-0.010996792
99	0xbbf58d3f	-0.0074936445
100	0xbc43a1cb	-0.01194043
101	0x3b8a2ffe	0.004217147
102	0xbaad6916	-0.0013230171
103	0x3ba38d03	0.004991175
104	0x3c485f15	0.012229701
105	0x3b688dd8	0.0035484936
106	0x387ae8d3	5.982148e-05
107	0xbbc4a2ad	-0.006000838
108	0xbc8884b3	-0.016664838
109	0xbbdec51b	-0.006798399
110	0xbac03bd0	-0.0014666263
111	0x39bee723	0.00036411834
112	0x3c6b2513	0.014352101
113	0xba1d1677	-0.0005992422
114	0xbba19b66	-0.004931855
115	0x3c09276f	0.008371218
116	0xbc192a7c	-0.009348508
117	0x3bba8161	0.0056916927
118	0xbb4756b1	-0.0030416662
119	0xbc4c6809	-0.012475976
120	0xbc9356bc	-0.017985694
121	0xbc48cc3b	-0.012255724
122	0x3b9b0e87	0.0047319564
123	0x3c3e67c2	0.0116214175
124	0xbc12fec0	-0.00897187
125	0x3bc6d83b	0.006068257
126	0x3b828199	0.0039827344
127	0xbc8b3fcf	-0.0169982

deep_layers.1.running_mean f4 [128]
0	0x3e726c5a	0.23674145
1	0xbe2da5d3	-0.16957788
2	0x3e67dfda	0.22643986
3	0xbe94ed68	-0.29087377
4	0xbd85e322	-0.06537463
5	0x3baeb977	0.0053321677
6	0x3c91c7e7	0.017795516
7	0xbd3c87bf	-0.046027895
8	0x3dfa5bb2	0.12224521
9	0xbc523377	-0.012829653
10	0x3d9c9aef	0.07646739
11	0x3e3fdd93	0.18736868
12	0x3e5c8e1e	0.21538588
13	0x3d5e06ed	0.054205824
14	0xbea38f78	-0.31945395
15	0xbe0c00d5	-0.13672192
16	0xbd915ad5	-0.07097403
17	0xbe738638	-0.23781669
18	0xbe01f7e0	-0.12692213
19	0xbd0c43e8	-0.034244448
20	0x3e52f88b	0.20602624
21	0x3e6292e9	0.22126354
22	0x3cfd8166	0.030945491
23	0x3e48b2d5	0.19599469
24	0x3e56bcb7	0.20970426
25	0x3e0cf36e	0.13764736
26	0x3df4b12d	0.11947856
27	0xbe064ac1	-0.13114454
28	0x3e636f4f	0.2221043
29	0x3ecaf8ba	0.39642888
30	0xbe18ce36	-0.14922413
31	0x3e65cfa6	0.22442493
32	0x3ef336e0	0.47502804
33	0x3d475bf7	0.04867169
34	0x3bdf181d	0.0068082944
35	0xbe5ff72d	-0.21871634
36	0xbd78e943	-0.06076933
37	0xbd5db8e1	-0.054131392
38	0xbe3bb972	-0.1833246
39	0x3e0941bf	0.13403986
40	0xbe30cb03	-0.17264943
41	0xbe3461f4	-0.17615491
42	0x3e5d6a01	0.21622469
43	0x3d9164d9	0.07099313
44	0xbeb72b6b	-0.35775313
45	0x3d416400	0.047214508
46	0x3e0bf94f	0.13669322
47	0xbe17aaf6	-0.1481131
48	0x3daffecf	0.08593523
49	0x3d7a2680	0.061071873
50	0xbdd50e2f	-0.10403096
51	0x3ea7e337	0.3279054
52	0x3e60c75c	0.2195105
53	0xbe301287	-0.17194568
54	0x3c6fb0a1	0.014629514
55	0x3ca53161	0.020165147
56	0x3e23185a	0.15927258
57	0xbdce3ddf	-0.10070395
58	0x3ea6e584	0.32596982
59	0x3cca1f3b	0.024673095
60	0xbd82540c	-0.06363687
61	0x3c047a74	0.008085836
62	0xb9206f00	-0.0001530014
63	0xbebdecd8	-0.3709476
64	0x3e2129f7	0.15738665
65	0x3ea46c2d	0.32113782
66	0xbe4abf37	-0.19799505
67	0xbd9587eb	-0.07301315
68	0xbdca74c7	-0.09885555
69	0xbc2948ad	-0.010332269
70	0x3eab3d10	0.33445024
71	0xbca1dd70	-0.01975891
72	0x3df3747b	0.11887451
73	0xbd1c7861	-0.03820074
74	0xbd62c015	-0.055358965
75	0x3d9c93aa	0.07645352
76	0x3e2f18b1	0.17099263
77	0xbb8e89a0	-0.0043499023
78	0x3e5c7ded	0.21532412
79	0xbdb43bda	-0.08800478
80	0xbe5317ef	-0.20614599
81	0x3d1ab764	0.03777255
82	0xbe70c57d	-0.23512836
83	0xbe50049b	-0.20314257
84	0xbdaa6a10	-0.08321011
85	0xbebe53bc	-0.3717326
86	0xbc5ea9b7	-0.013590268
87	0x3e792aa6	0.24332675
88	0x3e117014	0.1420291
89	0x3cecb2da	0.028893877
90	0x3d9b8420	0.0759356
91	0x3e19191b	0.14950983
92	0xbe522141	-0.20520498
93	0xbdb258d2	-0.087083474
94	0x3e811ca5	0.25217167
95	0x3e56d666	0.20980224
96	0xbd7ce01d	-0.06173717
97	0xbdf2a157	-0.118471794
98	0xbe0a91db	-0.13532202
99	0xbe154b9c	-0.14579624
100	0xbd9bca51	-0.07606948
101	0xbdc35c5e	-0.09539102
102	0x3e1e2272	0.15442827
103	0x3da1afe7	0.07894879
104	0x3e681b8f	0.22666763
105	0x3d6b9c52	0.057522126
106	0xbdf1243a	-0.11774488
107	0x3e98cc39	0.2984331
108	0x3daec959	0.08534498
109	0x3da5e5c7	0.08100467
110	0x3e76c56e	0.24098751
111	0x3e15b8b5	0.14621241
112	0x3d70ef0c	0.058821723
113	0xbee5bb12	-0.44869286
114	0xbddea8de	-0.108720526
115	0xbe57a36f	-0.21058439
116	0x3e905a8c	0.28194082
117	0xbe89ba94	-0.2690016
118	0x3e49aa98	0.19693983
119	0x3e9a1046	0.3009054
120	0xbe1e9af1	-0.15488793
121	0x3d7f7200	0.06236458
122	0x3df258e9	0.118333645
123	0x3b9ab128	0.0047208257
124	0x3dc1aa86	0.09456353
125	0x3ecf9c4e	0.4054894
126	0xbe373f41	-0.17895223
127	0x3d72de1e	0.05929386

deep_layers.1.running_var f4 [128]
0	0x3c7bdd36	0.015372565
1	0x3b8b86a0	0.004257992
2	0x3bbb5d75	0.005717928
3	0x3b91caa4	0.0044492055
4	0x3bbe96c5	0.005816313
5	0x3bc9798b	0.0061485223
6	0x3c597cb1	0.013274358
7	0x3bf80f2e	0.007570169
8	0x3c70bf1c	0.0146940015
9	0x3c0ff642	0.00878674
10	0x3c57ab61	0.0131634185
11	0x3bd9259e	0.006626799
12	0x3b5d1ff7	0.0033740976
13	0x3c252904	0.01008058
14	0x3c525f10	0.0128400475
15	0x3b52c674	0.0032161744
16	0x3b048c92	0.0020225388
17	0x3c8c98bf	0.017162679
18	0x3c0cd28d	0.008595121
19	0x3c3a1065	0.011356448
20	0x3b74f648	0.003737824
21	0x3c869706	0.016429435
22	0x3c65f146	0.014034575
23	0x3bb1c8f8	0.0054255687
24	0x3c3cabfc	0.011515614
25	0x3c2578a2	0.010099562
26	0x3cbf449c	0.023348145
27	0x3c4dc7f1	0.012559877
28	0x3c16381c	0.009168651
29	0x3c00a9cf	0.0078529855
30	0x3b27d44f	0.0025608724
31	0x3be746f8	0.0070580207
32	0x3cbaeb9c	0.022817425
33	0x3c2fb390	0.010723963
34	0x3c697bf1	0.014250741
35	0x3c08a4e9	0.008340099
36	0x3bb372bd	0.0054763244
37	0x3b8a5c46	0.0042224256
38	0x3b9907d3	0.004670122
39	0x3c081a70	0.008307084
40	0x3bd2c3e4	0.0064320434
41	0x3c11ad1c	0.00889137
42	0x3c948c7c	0.018133394
43	0x3ba4748a	0.0050187754
44	0x3b9ff4b4	0.004881466
45	0x3cdb9e27	0.026808811
46	0x3c077143	0.00826675
47	0x3bb03266	0.0053771017
48	0x3c25029f	0.010071426
49	0x3bd3f2e4	0.006468164
50	0x3b75a90f	0.00374848
51	0x3bdad95c	0.0066787433
52	0x3bca3e01	0.006171942
53	0x3b30f719	0.002700275
54	0x3c314f9c	0.010822203
55	0x3b854f10	0.004068263
56	0x3bddc630	0.0067680106
57	0x3bc70cd9	0.0060745296
58	0x3c98463a	0.018588174
59	0x3c03a7b7	0.008035592
60	0x3c423a73	0.011854756
61	0x3bf4d287	0.007471386
62	0x3c45d0d1	0.0120737115
63	0x3bd7fe0b	0.0065915636
64	0x3bffee96	0.007810424
65	0x3b9914a2	0.004671649
66	0x3c03e3d5	0.008049925
67	0x3baec5cd	0.0053336383
68	0x3b1e5f88	0.0024165828
69	0x3bf849d2	0.0075771594
70	0x3bf0cf51	0.007348933
71	0x3c38df25	0.011283671
72	0x3c02e5df	0.007989376
73	0x3c0e60dc	0.008690085
74	0x3baa90df	0.0052052583
75	0x3c18f345	0.009335344
76	0x3c07f822	0.008298906
77	0x3ba1b43f	0.004934817
78	0x3c921c98	0.0178359
79	0x3c188f56	0.009311518
80	0x3bc7e8ef	0.006100766
81	0x3c38f094	0.011287827
82	0x3bde5eaf	0.0067861895
83	0x3c1284e5	0.008942817
84	0x3c62fdac	0.013854425
85	0x3c562644	0.013070647
86	0x3c5d8d60	0.013522476
87	0x3b836f6f	0.0040110867
88	0x3c76b49c	0.015057709
89	0x3c88a5fe	0.016680714
90	0x3b3fd0ac	0.0029268665
91	0x3c04ddfa	0.008109564
92	0x3c5cabfb	0.013468738
93	0x3bfb8426	0.0076756654
94	0x3c4eddd7	0.012626133
95	0x3ba19d52	0.004932084
96	0x3bb4f645	0.0055225217
97	0x3bba3261	0.005682275
98	0x3ba98877	0.0051737386
99	0x3c08fb80	0.0083607435
100	0x3b8042ad	0.0039141984
101	0x3c58e3f1	0.013237939
102	0x3bdd3743	0.0067509725
103	0x3c1f3b57	0.009718738
104	0x3b7636e8	0.0037569348
105	0x3c590743	0.01324636
106	0x3c65b731	0.014020727
107	0x3c8bef88	0.01708199
108	0x3be4225a	0.006962103
109	0x3c11a69d	0.008889821
110	0x3b6961fa	0.0035611377
111	0x3c54ca0b	0.012987624
112	0x3bf79be8	0.0075564273
113	0x3c85c291	0.016328128
114	0x3be7f8e9	0.007079233
115	0x3c28d64b	0.010304998
116	0x3c3659d1	0.011129812
117	0x3bb924c8	0.0056501366
118	0x3bcc52f0	0.006235473
119	0x3c848411	0.016176255
120	0x3c18d084	0.009327058
121	0x3be6c4b6	0.0070424927
122	0x3c0d9957	0.008642516
123	0x3bddd116	0.0067693098
124	0x3bda29a7	0.0066577974
125	0x3c5395a9	0.0129141
126	0x3bb6acfe	0.0055748215
127	0x3c9a65d0	0.018847376

deep_layers.4.weight f4 [64, 128]
0	0xbc351dd1	-0.011054472
1	0x3d5b6eb7	0.053572383
2	0xbe21faaf	-0.15818284
3	0x3d86dee1	0.065854795
4	0x3d561501	0.052266125
5	0x3ebe8754	0.37212622
6	0xbd95b678	-0.07310194
7	0xbc4444b3	-0.01197927
8	0x3dd1b651	0.10239852
9	0x3b2941ff	0.002582669
10	0x3da4eced	0.080530025
11	0xbd0b1983	-0.033959877
12	0x3c94212e	0.018082228
13	0x3cdbaa8e	0.026814725
14	0x3d50db8f	0.050990637
15	0x3d89adb2	0.06722583
16	0x3d8dabb5	0.06917516
17	0x3e3d41fd	0.18482204
18	0x3c85dde7	0.016341163
19	0x3da074de	0.07834791
20	0x3c1cb361	0.009564252
21	0xbdab8fd5	-0.08377043
22	0xbcb0f0c3	-0.02159918
23	0x3db57903	0.08860972
24	0xbcf1ba73	-0.029507851
25	0xbd46a002	-0.04849244
26	0xbdef149a	-0.11673851
27	0xbd8952fe	-0.06705283
28	0xbdf91938	-0.12163013
29	0xbd08eb47	-0.033427503
30	0xbe017bf2	-0.12644938
31	0x3d639eb6	0.05557128
32	0xbd8986b6	-0.06715147
33	0xbdc05939	-0.09392018
34	0x3dfc87d6	0.12330596
35	0xbd462697	-0.048376646
36	0x3c933268	0.017968372
37	0xbd5206f4	-0.051276162
38	0xbe4b8869	-0.19876255
39	0xbc9b0c70	-0.01892683
40	0x3e6fd7ee	0.23422214
41	0xbe434a6e	-0.19071361
42	0xbd8c3b94	-0.06847301
43	0x3d33cc5d	0.043896068
44	0x3d86612d	0.065615036
45	0x3db2761e	0.08713935
46	0xbc8dd246	-0.01731218
47	0xb9cb11bd	-0.00038732393
48	0xbe89b7e4	-0.2689811
49	0x3b5ffe57	0.0034178698
50	0x3d73b363	0.05949725
51	0xbe051e9b	-0.12999956
52	0x3d2c3748	0.042044908
53	0xbdb87885	-0.09007362
54	0xbe3100d2	-0.17285469
55	0x3e0c3c31	0.13694836
56	0xbde7c4c8	-0.1131683
57	0xbaf298b4	-0.0018508644
58	0x3c1869da	0.009302581
59	0x3c59924a	0.013279507
60	0x3d5d24e8	0.053990275
61	0x3c622773	0.013803351
62	0xbe00e02a	-0.12585512
63	0xbd1eb15a	-0.038743354
64	0xbe240fce	-0.16021654
65	0xbd3b703c	-0.045761332
66	0xbd94b11f	-0.07260346
67	0x3db02b18	0.086019695
68	0xbce8283c	-0.028339498
69	0xbc7edffd	-0.015556333
70	0x3d8a73bf	0.06760358
71	0x3e2afe73	0.16698627
72	0x3d28e9cb	0.041238587
73	0xbe1f64ff	-0.1556587
74	0x3dcc7b41	0.09984446
75	0xbd147e21	-0.0362531
76	0x3e52fd6d	0.20604487
77	0xbb3d0f30	-0.0028848164
78	0xbde95c24	-0.113945276
79	0xbe3e0dfb	-0.1856002
80	0xbc73efe2	-0.0148887355
81	0xbd45c30a	-0.048281707
82	0x3dbc940b	0.092079245
83	0x3e01f97d	0.12692828
84	0x3e2ac963	0.16678385
85	0xbe251bb8	-0.16123855
86	0xbe0a05c5	-0.13478763
87	0xbbed00c6	-0.007232758
88	0xbe824a3d	-0.25447264
89	0x3c6741eb	0.014114837
90	0x3c4b6855	0.012415011
91	0xbcd86b30	-0.026418298
92	0xbd68eb6e	-0.05686515
93	0xbda07dba	-0.078364804
94	0xbe01b1c9	-0.12665476
95	0xbd2759b0	-0.040857017
96	0x3d87135f	0.065954916
97	0x3dc4ca88	0.09608942
98	0xbe14724f	-0.1449673
99	0xbda70829	-0.08155853
100	0xbdd72030	-0.10504186
101	0x3cd15f82	0.025558237
102	0x3dd6ebde	0.10494207
103	0x3e2727ae	0.1632373
104	0x3d0da35b	0.034579616
105	0xbdcd956e	-0.10038267
106	0xbd836135	-0.06415025
107	0xbde80b3e	-0.11330269
108	0xbc1e3f7f	-0.009658693
109	0x3d5379b9	0.051629756
110	0xbb348ae2	-0.00275486
111	0x3c9e6ddf	0.0193395
112	0xbcf15ea2	-0.02946407
113	0xbd08ec0d	-0.03342824
114	0xbcd56947	-0.026051177
115	0xbe064139	-0.13110818
116	0xbe5c7b20	-0.21531343
117	0x3e3d78ee	0.18503162
118	0xbd463a00	-0.048395157
119	0xbd4cda48	-0.050012857
120	0xbd0bb2ac	-0.03410594
121	0xbe367185	-0.17816742
122	0xbe0f7166	-0.14008102
123	0xbd9b47e6	-0.07582073
124	0x3e13dce4	0.14439732
125	0xbe30e84a	-0.17276111
126	0x3df9f50b	0.12204941
127	0x3daaf1db	0.083469115
128	0xbe20587f	-0.15658759
129	0x3d892ce9	0.06698019
130	0xbd43b029	-0.04777542
131	0x3e2e6220	0.17029619
132	0x3c27e01a	0.010246301
133	0x3d00f0c8	0.031479627
134	0xbe2d59f0	-0.1692884
135	0x3d889a87	0.06670099
136	0xbe3e9ff9	-0.18615712
137	0xbdab2a27	-0.08357649
138	0x3dac4562	0.08411671
139	0x3cfc527b	0.030801049
140	0x3caf7895	0.021419803
141	0x3e7874d0	0.2426331
142	0xbdb6b29d	-0.089207865
143	0xbd977618	-0.073955715
144	0xbd9d02af	-0.076665275
145	0xbdbf43c3	-0.093390964
146	0x3d03d739	0.032187674
147	0xbda4bb6a	-0.08043559
148	0xbb970fd7	-0.0046100426
149	0xbd37ade6	-0.044843577
150	0xbd59dcf0	-0.053189218
151	0x3dc5f1f1	0.09665287
152	0x3db9ba2e	0.09068714
153	0x3d052fdb	0.03251634
154	0xbe38d091	-0.18048312
155	0xbd1585de	-0.03650462
156	0x3e3df3cb	0.18550031
157	0xbd736442	-0.059421785
158	0x3e0107c9	0.12600626
159	0xbc069f96	-0.008216759
160	0x3d94b89b	0.07261773
161	0xbd0c55af	-0.0342614
162	0xbe1c6ccc	-0.15275878
163	0x3d5a2f0d	0.053267527
164	0x3e62af76	0.22137246
165	0xbde8c7a0	-0.113662004
166	0xba58a84d	-0.0008264825
167	0xbdaad462	-0.0834129
168	0x3e0908e7	0.13382302
169	0xbda39936	-0.07988207
170	0x3da9e343	0.082953
171	0xbe024893	-0.12722997
172	0xbb983b16	-0.0046457155
173	0xbd70efab	-0.058822315
174	0x3d3f892f	0.046761688
175	0xbd089fdf	-0.03335559
176	0xbe094c68	-0.13408053
177	0xbda1a411	-0.07892621
178	0xbe12eb0c	-0.14347476
179	0x3cd85054	0.026405491
180	0x3d4b471a	0.049628355
181	0x3d033d6f	0.03204101
182	0xbc9fc838	-0.019504651
183	0xbdfffc2d	-0.124992706
184	0x3dc4720a	0.09592064
185	0xbd82a04c	-0.063782305
186	0xbe4552de	-0.19269893
187	0x3e07f55c	0.13277191
188	0x3d5e470a	0.054266967
189	0xbe9ae867	-0.30255434
190	0x3e08a09b	0.13342516
191	0x3cf1f36d	0.02953502
192	0xbdcf4935	-0.10121385
193	0xbd6d37fb	-0.057914715
194	0x3e10a0a4	0.1412378
195	0x3dd149fb	0.10219189
196	0xbc47197e	-0.012152074
197	0xbd9937d4	-0.074813515
198	0x3e2a46b9	0.16628541
199	0xbca9b7cc	-0.020717524
200	0xbd986668	-0.074414074
201	0x3dc6cb35	0.097067274
202	0xbe7020e0	-0.23450041
203	0xbddfd0b1	-0.109284766
204	0xbd92807f	-0.07153415
205	0xbe211df9	-0.1573409
206	0xbbe12020	-0.0068702847
207	0x3d869e16	0.06573121
208	0x3d785651	0.060629193
209	0x3dab3e69	0.08361513
210	0xbd961f6b	-0.07330211
211	0xbc738c77	-0.014865032
212	0xbc96b088	-0.018394724
213	0xbc647311	-0.01394345
214	0x3d4d2cca	0.050091542
215	0x3e2466d1	0.16054846
216	0xbc8fc11b	-0.017548135
217	0x3de2fb73	0.110831164
218	0x3d223914	0.039605215
219	0x3d91717f	0.07101726
220	0x3ce6e2cb	0.028184315
221	0xbd0d43ea	-0.034488596
222	0x3d727fc9	0.059203897
223	0x3c0e5c22	0.008688958
224	0x3c28b732	0.010297583
225	0x3d833876	0.064072534
226	0x3dbc6017	0.09198015
227	0x3da8db98	0.08245009
228	0xbdc6bf58	-0.09704465
229	0x3e07f219	0.13275947
230	0xbcbea311	-0.023271115
231	0x3cdb7146	0.026787411
232	0xbc6122f6	-0.0137412455
233	0x3dd0393a	0.10167165
234	0x3d4c43be	0.04986929
235	0xbd6e0a26	-0.058115147
236	0xbc95e56b	-0.018297872
237	0x3e1429e8	0.14469111
238	0x3e23031a	0.15919152
239	0xbdd4425c	-0.103642195
240	0x3d74e61e	0.05978977
241	0xbd6136a5	-0.054983754
242	0x3d60dbd6	0.054897152
243	0xbd93228f	-0.07184326
244	0xbcf0b563	-0.029383367
245	0x3e1bc09e	0.15210196
246	0x3cf1a844	0.02949918
247	0xbd29dd28	-0.041470677
248	0xbc0a3125	-0.0084345685
249	0xbe696480	-0.22792244
250	0xbc9f64f1	-0.019457312
251	0xbcea53a0	-0.028604329
252	0x3cfeb4f7	0.03109215
253	0x3e36c81b	0.17849772
254	0x3d210cec	0.039318964
255	0x3daf3acb	0.08556136

deep_layers.4.bias f4 [64]
0	0xbb861069	-0.0040913117
1	0xbb8388d6	-0.004014115
2	0xbb2bad0d	-0.0026195676
3	0x3c1b2fe6	0.009471869
4	0xb9c05fd2	-0.00036692485
5	0x3b3f7589	0.0029214344
6	0xbbb6b5f7	-0.005575891
7	0x3c0dcd0a	0.008654842
8	0xba82a031	-0.0009965954
9	0xba85733b	-0.0010181436
10	0x3bcf517b	0.006326852
11	0x3aa68dd1	0.001270706
12	0x3a9e3663	0.0012070652
13	0x39954d50	0.00028477097
14	0xbb88d063	-0.0041752323
15	0xbbf85d1e	-0.00757946
16	0xb937ea24	-0.00017539464
17	0x3bc3318d	0.0059568346
18	0xb9ba08a5	-0.00035483125
19	0x3be33e03	0.0069348826
20	0x3b5714ae	0.0032818723
21	0xbb828764	-0.003983425
22	0xbc054a37	-0.00813537
23	0x39ea5887	0.00044697916
24	0xbbbcc104	-0.005760314
25	0xbbb6eabf	-0.005582183
26	0x3ba7aff1	0.0051174094
27	0x3a8ee29a	0.0010901273
28	0xbbf10435	-0.007355238
29	0xba806fa1	-0.0009798893
30	0xbbae5b59	-0.005320948
31	0xba047602	-0.0005052985
32	0xbaf91dad	-0.0019006036
33	0x3c282ec4	0.010265056
34	0x3bd1e0f9	0.0064049927
35	0x3b3b2e2d	0.0028561458
36	0x3bf39888	0.0074339546
37	0xbbc83db8	-0.006110873
38	0xbb71ddd8	-0.003690591
39	0xb9bcc4e4	-0.0003600485
40	0xbb8cf547	-0.0043017003
41	0x3b8600e7	0.004089463
42	0x3b0cabe2	0.0021464755
43	0x3a3f8f3a	0.0007307414
44	0x3bc19b8d	0.0059084357
45	0x3b6b755c	0.0035928106
46	0x3b6c2073	0.0036030083
47	0x3bc4be0e	0.0060041016
48	0x3bb36ac7	0.0054753753
49	0x399e9c8c	0.00030252745
50	0xb9d8dff4	-0.0004136559
51	0x3b4d3363	0.0031311146
52	0xbbd227d1	-0.006413438
53	0x3bab06eb	0.0052193305
54	0x3a454c36	0.000752631
55	0xbc0e6258	-0.008690439
56	0xbabf5667	-0.0014597893
57	0x3b135f2f	0.0022487154
58	0x3bbb19be	0.005709856
59	0xbc49374a	-0.012281248
60	0x3b8f99a5	0.0043823295
61	0xbb0a23b9	-0.0021078421
62	0xbb83678e	-0.0040101474
63	0x3baf965a	0.0053584995

deep_layers.5.weight f4 [64]
0	0x3f80d08c	1.0063643
1	0x3f7de558	0.99178076
2	0x3f7d4ad9	0.98942333
3	0x3f7d6b5e	0.98991954
4	0x3f801430	1.0006161
5	0x3f80743c	1.0035472
6	0x3f7cf6ab	0.98813885
7	0x3f7deec4	0.9919245
8	0x3f7e94e3	0.99445933
9	0x3f83b696	1.0290096
10	0x3f7e065e	0.99228466
11	0x3f814411	1.0098897
12	0x3f80a2f8	1.0049734
13	0x3f82f81b	1.0231966
14	0x3f7fb237	0.9988131
15	0x3f7a6e18	0.9782424
16	0x3f82a4cd	1.0206543
17	0x3f7bc3f3	0.9834587
18	0x3f801dab	1.0009054
19	0x3f7c9b09	0.98674065
20	0x3f83a9b2	1.0286162
21	0x3f82b8b1	1.0212613
22	0x3f7c4183	0.9853746
23	0x3f7ccec1	0.9875298
24	0x3f821ec1	1.0165635
25	0x3f7e8062	0.99414647
26	0x3f81c7ef	1.013914
27	0x3f7c8dc8	0.9865384
28	0x3f818f52	1.0121863
29	0x3f838c28	1.0277147
30	0x3f820554	1.0157876
31	0x3f81a14d	1.012735
32	0x3f7d024a	0.9883162
33	0x3f7eba19	0.9950271
34	0x3f81ece6	1.0150421
35	0x3f7c44eb	0.9854266
36	0x3f7ca002	0.9868165
37	0x3f7cfd09	0.988236
38	0x3f84ecc8	1.038476
39	0x3f7d3eb0	0.9892378
40	0x3f81ef1b	1.0151094
41	0x3f80b576	1.0055377
42	0x3f854dc7	1.0414361
43	0x3f7eaded	0.9948414
44	0x3f80e34b	1.0069364
45	0x3f84b96b	1.0369085
46	0x3f7eb64e	0.99496925
47	0x3f7d2df2	0.9889823
48	0x3f80ae05	1.0053107
49	0x3f7fb857	0.99890655
50	0x3f7e9e36	0.9946016
51	0x3f8286e0	1.019741
52	0x3f7d0a32	0.9884368
53	0x3f83fe15	1.0311915
54	0x3f80712c	1.0034537
55	0x3f7b75ec	0.9822681
56	0x3f7f7b69	0.99797684
57	0x3f7ed889	0.99549156
58	0x3f80ad83	1.0052952
59	0x3f7ad131	0.9797545
60	0x3f820b29	1.0159656
61	0x3f7c97c3	0.9866907
62	0x3f7fc78b	0.99913853
63	0x3f7d0beb	0.9884631

deep_layers.5.bias f4 [64]
0	0x3bb8c72a	0.0056389766
1	0xbc5a8f84	-0.013339881
2	0xbbe0b8a6	-0.0068579493
3	0xbbe90e96	-0.0071123345
4	0xbbd8e8b0	-0.0066195354
5	0x3861e80d	5.3860294e-05
6	0xbb9f121f	-0.004854455
7	0xbc6cd4f6	-0.014455071
8	0xbc74905b	-0.014926995
9	0x3c81981d	0.015819604
10	0xbc519b54	-0.012793381
11	0xba89b79d	-0.0010506992
12	0xbb7e2c26	-0.0038783639
13	0xbb811527	-0.003939289
14	0xbbcd5a6c	-0.0062668826
15	0xbc6362c6	-0.01387853
16	0x3c55d72b	0.013051788
17	0xbca9b9e7	-0.020718528
18	0x3aa15ee4	0.0012311605
19	0xbc41c44e	-0.011826588
20	0x3bf06ef3	0.007337445
21	0x3beffa0c	0.007323509
22	0xbca476c1	-0.020076158
23	0xbbfa3acd	-0.007636404
24	0x3bf9245c	0.0076032113
25	0xbba7a344	-0.0051158983
26	0xbacab501	-0.001546532
27	0xbbff6fc5	-0.0077953064
28	0xbb406891	-0.0029359201
29	0x3bb7c602	0.005608321
30	0x3befff9d	0.0073241726
31	0x3b258544	0.0025256434
32	0xbc4499da	-0.011999572
33	0xbc335395	-0.0109452205
34	0xbbe9fd87	-0.0071408185
35	0xbc80f0a1	-0.01573974
36	0xbc732e71	-0.014842615
37	0xbc314fc0	-0.010822237
38	0x3c3ba43a	0.011452729
39	0xbb0d08c6	-0.0021520122
40	0xbb137774	-0.002250162
41	0x3c391a6e	0.011297805
42	0x3c723ea7	0.014785445
43	0xb9b69b63	-0.00034829517
44	0xbac9e49c	-0.0015403214
45	0xbb6d6f5c	-0.0036229705
46	0xbbae9922	-0.0053283134
47	0xbc43be51	-0.01194723
48	0xbbca88fe	-0.0061808815
49	0xbb356cff	-0.0027683375
50	0xbb3da58b	-0.0028937783
51	0xbb2787fa	-0.0025563226
52	0xbb22200e	-0.0024738344
53	0x3cc91662	0.024546806
54	0x3bd8e51e	0.00661911
55	0xbbf1941c	-0.0073723923
56	0xbb28ccf0	-0.0025756918
57	0xbb450402	-0.0030062203
58	0xba4d45c1	-0.00078305235
59	0xbbeee8d4	-0.007290939
60	0x3b207cc6	0.0024488433
61	0xbc8465b1	-0.016161771
62	0x3b46efb4	0.0030355277
63	0xbc248153	-0.010040599

deep_layers.5.running_mean f4 [64]
0	0xbf271909	-0.65272576
1	0x3b9726f5	0.0046127983
2	0xbeb959fb	-0.36201462
3	0x3ea52a48	0.3225882
4	0x3e827670	0.25480986
5	0x3ef00207	0.46876547
6	0x3f1e7f3e	0.61912906
7	0x3d846fde	0.064666495
8	0x3eaeccf6	0.34140748
9	0xbe3feddd	-0.18743081
10	0xbe5f2102	-0.21789935
11	0x3f8ec2b2	1.1153166
12	0x3e85885b	0.26080593
13	0x3f17acc4	0.59247994
14	0xbe65191f	-0.22372864
15	0x3ec26604	0.37968457
16	0xbc6cb080	-0.014446378
17	0x3ee718e4	0.45136178
18	0x3dc261f3	0.094913386
19	0xbdec1341	-0.1152711
20	0x3d4badde	0.04972636
21	0x3f120db3	0.57052153
22	0xbddad608	-0.106853545
23	0x3e3a1f62	0.18176034
24	0x3eb945da	0.36186105
25	0x3e26cd60	0.16289282
26	0xbd2839f3	-0.04107089
27	0xbe94345e	-0.28946203
28	0xbf6fe431	-0.9370757
29	0x3ec35a99	0.38155058
30	0x3daf3e0c	0.085567564
31	0x3e3ac314	0.18238479
32	0xbf120a16	-0.5704664
33	0x3f175d3c	0.5912664
34	0x3ec5ac59	0.38608053
35	0x3dad356d	0.08457456
36	0xbda43afb	-0.08019062
37	0x3e3b3612	0.18282345
38	0x3c9c2434	0.019060232
39	0x3ea88653	0.3291498
40	0x3fa6ba70	1.3025646
41	0xbee8d2a9	-0.4547322
42	0x3eed5596	0.4635436
43	0xbdbac4d3	-0.091195725
44	0xbe0bfc44	-0.1367045
45	0x3dd455b4	0.10367909
46	0x3cd49d5a	0.025953937
47	0x3e517bb2	0.20457342
48	0xbe55a050	-0.20861936
49	0x3d8770c0	0.06613302
50	0x3f2f8bcc	0.6857269
51	0x3ee0ba54	0.43892157
52	0x3b43f428	0.0029900167
53	0x3f80dab3	1.0066742
54	0xbe987b28	-0.2978146
55	0xbf07b6a2	-0.5301305
56	0xbe0bdb7c	-0.13657945
57	0x3e90b897	0.2826583
58	0x3f3de9dc	0.74184966
59	0xbf895a3b	-1.0730661
60	0x3e91fa13	0.28511104
61	0x3f25595f	0.64589494
62	0xbee90581	-0.45512012
63	0xbf034524	-0.51277375

deep_layers.5.running_var f4 [64]
0	0x3f361206	0.7112125
1	0x3f682c6a	0.9069277
2	0x3f47a600	0.7798767
3	0x3f322d3d	0.6960028
4	0x3f014f44	0.50511575
5	0x3f6f3b78	0.9345012
6	0x3f42e403	0.7612917
7	0x3f0c7181	0.54860693
8	0x3ef39a1e	0.4757852
9	0x3f9e71ae	1.2378442
10	0x3eef4cbe	0.46738237
11	0x3f771b30	0.9652586
12	0x3f7d2da2	0.98897755
13	0x3fbe544c	1.4869475
14	0x3ec692c0	0.38783836
15	0x3f639bca	0.8890959
16	0x3efd22a3	0.49440488
17	0x3f56ce02	0.8390809
18	0x3f00618a	0.5014883
19	0x3f45f19c	0.7732179
20	0x3f9553db	1.1666216
21	0x3f1e28ef	0.6178121
22	0x3eebcd05	0.46054855
23	0x3f6a4035	0.9150422
24	0x3f428ee0	0.7599926
25	0x3f3c96f5	0.7366784
26	0x3f4232b9	0.75858647
27	0x3f4b87ed	0.7950428
28	0x3f1a25e7	0.60214084
29	0x3f09aa22	0.5377523
30	0x3eed84f8	0.4639051
31	0x3eec5161	0.46155837
32	0x3f176abf	0.59147257
33	0x3f78a324	0.9712393
34	0x3f5ae68d	0.8550804
35	0x3f192f51	0.59837824
36	0x3f1c2467	0.60993046
37	0x3f1f358b	0.62191075
38	0x3f811ed5	1.0087534
39	0x3f9722d9	1.180751
40	0x3ef8f044	0.48620808
41	0x3f26aad0	0.6510439
42	0x3f1d7931	0.6151305
43	0x3f39a49d	0.72516805
44	0x3f10c5dc	0.5655191
45	0x3f91ccd6	1.1390636
46	0x3f93521f	1.1509436
47	0x3f161c0b	0.5863654
48	0x3eeae642	0.45878798
49	0x3f4e3471	0.8054877
50	0x3f121917	0.57069534
51	0x3f7efdf8	0.99606276
52	0x3f361aa7	0.7113442
53	0x3f962831	1.1731015
54	0x3f2a6e4f	0.6657457
55	0x3ecaca5d	0.39607516
56	0x3fc38ba7	1.5276994
57	0x3ed72a01	0.42024234
58	0x3f29953a	0.66243327
59	0x3f478d98	0.7795043
60	0x3f3ddc20	0.7416401
61	0x3ef8653a	0.4851473
62	0x3f183546	0.5945629
63	0x3f278109	0.6543127

deep_layers.8.weight f4 [32, 64]
0	0xbc9deb9e	-0.01927739
1	0xbdd14a1d	-0.10219214
2	0xbdaae2d2	-0.08344044
3	0xbe232a4a	-0.15934101
4	0x3def237f	0.11676692
5	0xbdc19824	-0.09452847
6	0x3b38ebff	0.0028216837
7	0xbdeeecd2	-0.11666264
8	0xbd7ef3fc	-0.0622444
9	0x3df8b1ff	0.12143325
10	0xbe3ff32a	-0.18745103
11	0xbc9ccabc	-0.01913964
12	0xbdcd9faa	-0.10040219
13	0x3e976e9d	0.2957658
14	0x3d3d3971	0.04619736
15	0x3ccccbf0	0.024999589
16	0x3d96b1ad	0.07358108
17	0x3e0ff3dc	0.14057869
18	0xbcce8474	-0.025209643
19	0x3ea2c1f1	0.3178859
20	0x3eccf6a6	0.40031928
21	0xbd092784	-0.03348495
22	0xbd8de526	-0.06928472
23	0x3d648fb2	0.0558011
24	0x3d631fea	0.055450357
25	0x3dd1bc63	0.1024101
26	0x3e33e1e3	0.17566638
27	0x3d24dba9	0.040248547
28	0x3e628745	0.22121914
29	0x3d5bce81	0.053663734
30	0x3e9930ea	0.2992013
31	0x3dcdf8f9	0.100572534
32	0x3e8334ea	0.25626308
33	0x3ea7b247	0.32753202
34	0xbe0b24c8	-0.1358825
35	0xbe4121ee	-0.188606
36	0xbb0914c5	-0.002091692
37	0xbe7559a9	-0.23959984
38	0x3d3faad9	0.046793792
39	0x3e857d6e	0.26072258
40	0xbdc16141	-0.09442378
41	0xbe1e36ec	-0.15450639
42	0x3e070934	0.13187104
43	0xbe59bdfc	-0.2126388
44	0xbb3f9437	-0.002923263
45	0x3cc1dbcf	0.023664383
46	0xbdb37867	-0.08763199
47	0xbe71a323	-0.23597388
48	0xbbc8bbc8	-0.006125901
49	0xba18f232	-0.000583443
50	0xbe457fa1	-0.19286968
51	0x3e5c45f4	0.2151106
52	0x3d405175	0.046952683
53	0xbd3e5010	-0.046463072
54	0x3d80f01e	0.06295799
55	0xbd594e65	-0.05305328
56	0xbd258bdd	-0.040416587
57	0x3daa3434	0.08310738
58	0x3e57dc80	0.21080208
59	0xbd97a7a5	-0.074050225
60	0xbdbdb077	-0.092621736
61	0x3dd0b43d	0.10190628
62	0xbde38ea2	-0.111111894
63	0x3d7373cf	0.059436616
64	0xbd9b9af7	-0.075979166
65	0x3e755155	0.23956807
66	0x3e5a781f	0.21334885
67	0x3b14cbd9	0.002270451
68	0xbf004113	-0.50099295
69	0x3e19ca97	0.15018688
70	0x3e707a33	0.23484115
71	0xbb64a5fe	-0.0034888978
72	0x3e6f5f7b	0.23376267
73	0x3d22e8dc	0.039772853
74	0x3e2d80ef	0.16943716
75	0x3e12d64e	0.14339563
76	0xbd9b3873	-0.07579126
77	0x3e7259aa	0.23667017
78	0x3c224071	0.009903059
79	0x3e9bc47a	0.30423337
80	0x3e60d64e	0.21956751
81	0xbd9fdb12	-0.07805456
82	0x3e3acb86	0.182417
83	0xbe0e5218	-0.13898504
84	0xbda567d8	-0.08076447
85	0xbd68e192	-0.056855746
86	0x3e065f27	0.13122235
87	0x3be3d366	0.006952691
88	0xbe81c551	-0.25345853
89	0xbd099931	-0.03359336
90	0xbce0be4c	-0.02743449
91	0x3e36f448	0.17866623
92	0x3e39703b	0.18109219
93	0x3e3b99b5	0.18320353
94	0xbe1dab49	-0.15397371
95	0xbd93db24	-0.07219532
96	0xbc59f109	-0.013302096
97	0x3e16f5b9	0.14742173
98	0x3dcccc59	0.09999914
99	0x3df5d63e	0.12003754
100	0x3e7f6fc6	0.24944982
101	0x3e9e1493	0.30875072
102	0x3a8ddb18	0.0010822741
103	0x3e0cffbe	0.13769433
104	0xbd6eea43	-0.058328878
105	0x3dd71814	0.105026394
106	0x3dcc7917	0.099840336
107	0x3c3a6421	0.011376412
108	0xbdc06bf9	-0.09395594
109	0x3e4a7f6a	0.19775167
110	0xbde3844e	-0.111092195
111	0xbd12aeea	-0.035811342
112	0xbd7ad968	-0.06124249
113	0xbe501ccf	-0.2032349
114	0x3ca98048	0.020691052
115	0x3e008d1a	0.12553826
116	0x3c837eb3	0.016051626
117	0x3e84798b	0.2587398
118	0xbdbb2e7f	-0.09139728
119	0xbcf0f145	-0.029411921
120	0x3dd1d884	0.10246375
121	0xbdf0959c	-0.11747286
122	0x3d5a8e5b	0.053358417
123	0x3c81ac55	0.015829245
124	0xbe1dda92	-0.15415409
125	0x3da27d29	0.07934029
126	0xbc51fbaf	-0.012816354
127	0xbec155d4	-0.37760794
128	0xbd735007	-0.059402492
129	0xbcfd9591	-0.030955108
130	0x3bd7e0a0	0.0065880567
131	0xbdd8f118	-0.1059286
132	0x3c025454	0.007954676
133	0x3dcc9955	0.09990183
134	0xbd978fc4	-0.07400468
135	0x3ceedd9a	0.029158402
136	0x3e5b5e87	0.21422778
137	0x3e023648	0.12716019
138	0xbe2a9184	-0.16657072
139	0xbcbef148	-0.023308411
140	0x3d3ae95d	0.04563271
141	0xbe2cafcb	-0.16863935
142	0x3e606392	0.21912983
143	0xbdfd44bd	-0.123666264
144	0x3dd87aa3	0.10570266
145	0xbdcea460	-0.10089946
146	0xbdd9816a	-0.10620387
147	0xbc930dd9	-0.017950939
148	0x3e914370	0.28371763
149	0x3dbd2fb2	0.09237613
150	0x3d1a2b8e	0.037639193
151	0xbd6330e0	-0.055466533
152	0xbe5f76c6	-0.21822652
153	0x3e15cf84	0.14629942
154	0xbd81813f	-0.0632348
155	0xbd6bda70	-0.057581365
156	0xbc6ee275	-0.014580359
157	0xbdf4cacd	-0.11952744
158	0xbb4e30f5	-0.0031462286
159	0xbda3da21	-0.08000589
160	0xbd80d67b	-0.06290909
161	0xbdb7c1b2	-0.08972491
162	0x3d994288	0.07483393
163	0x3c0c162c	0.008550208
164	0x3e1a10f9	0.15045537
165	0x3e9c04c8	0.30472398
166	0x3d0d540b	0.034503978
167	0x3e9bc2db	0.304221
168	0x3def5794	0.11686626
169	0xbe658f5b	-0.22417967
170	0xbde30b3d	-0.11086128
171	0xbe709498	-0.23494184
172	0x3e8cb6b5	0.27483144
173	0x3d980a8a	0.07423885
174	0xbdd22370	-0.102606654
175	0x3e43cd1d	0.19121213
176	0xbe8dbbd1	-0.27682355
177	0x3e11d696	0.14242014
178	0xbe2cefe0	-0.1688838
179	0x3e0b9690	0.13631654
180	0xbe6e342e	-0.23262092
181	0xbe587264	-0.21137387
182	0x3d71a61a	0.058996297
183	0xbe1ca9e1	-0.15299179
184	0xbe061dbc	-0.1309728
185	0xbdd62b91	-0.104575284
186	0x3d5c0c06	0.053722404
187	0xbdfe9a8c	-0.12431821
188	0xbde49631	-0.11161459
189	0xbe46661f	-0.19374894
190	0xbdd1bd35	-0.102411665
191	0xbd939fae	-0.07208191
192	0x3d843eb6	0.06457274
193	0x3be6f319	0.0070480225
194	0x3d9787f5	0.073989786
195	0xbdb10012	-0.086425915
196	0xbcf9682a	-0.030445177
197	0xbc98e61b	-0.01866441
198	0x3dbec7b4	0.09315434
199	0xbe22cced	-0.15898485
200	0xbcd562ee	-0.02604815
201	0xbcdd4ddb	-0.027014663
202	0x3dc91239	0.09817929
203	0xbd905b22	-0.07048632
204	0xbe19ea26	-0.15030727
205	0x3b1f2835	0.002428544
206	0x3eb0e24e	0.34547657
207	0x3c58f7d6	0.013242682
208	0x3dc8e697	0.098096065
209	0x3cba1387	0.02271439
210	0xbe8e325f	-0.27772805
211	0xbd8548d5	-0.06508032
212	0xbc5b2ce8	-0.013377406
213	0xbd187993	-0.037225317
214	0x3e2033d8	0.15644777
215	0xbc3487cf	-0.011018707
216	0xbe6b9c55	-0.23008855
217	0xbdf6e75e	-0.120558485
218	0xbe0b8116	-0.13623461
219	0x3dd3ebe7	0.10347729
220	0x3e202e4a	0.15642658
221	0xbd89383e	-0.067001805
222	0x3dbec248	0.093144
223	0xbcf41dbf	-0.02979934
224	0xbddb4fe8	-0.107086
225	0xbeacdc53	-0.33761844
226	0xbe34c104	-0.17651755
227	0x3e2e7c48	0.17039597
228	0xbd4a1209	-0.049333606
229	0xbe4bf368	-0.19917071
230	0xbcae61b5	-0.021286825
231	0xbe1368cd	-0.14395447
232	0xbe11a67c	-0.14223665
233	0xbe81dd95	-0.25364366
234	0x3e78906f	0.24273847
235	0x3d05c51b	0.032658678
236	0xbdee9ef9	-0.116514154
237	0xbd3897b4	-0.04506655
238	0xbd127b52	-0.03576214
239	0xbd5aa729	-0.053382073
240	0x3e7172b5	0.23578914
241	0xbe667970	-0.22507262
242	0x3dbe5287	0.092930846
243	0x3e9b5189	0.30335644
244	0x3c9fad7d	0.019491905
245	0xbe175818	-0.14779699
246	0x3d14512c	0.036210224
247	0xbcce1597	-0.02515678
248	0x3c50f4ed	0.012753707
249	0x3d47709e	0.048691384
250	0xbe0349ae	-0.12821075
251	0xbe39f67b	-0.18160431
252	0xbc65245a	-0.013985718
253	0xbd865370	-0.06558883
254	0x3e6336b5	0.22188838
255	0x3e5c2024	0.21496636

deep_layers.8.bias f4 [32]
0	0xbbf3e6aa	-0.007443269
1	0x3a060606	0.0005112592
2	0x3b59875f	0.003319226
3	0x3b6d8120	0.0036240295
4	0xbb9f577f	-0.0048627253
5	0x3b8a994c	0.0042297
6	0x3baf2fb6	0.0053462638
7	0xba47d966	-0.00076236425
8	0xbc13bb38	-0.009016804
9	0xbb9e3dfe	-0.0048291674
10	0x3c035cd8	0.008017741
11	0xba1e392f	-0.00060357427
12	0xbbfdc751	-0.0077447076
13	0xbb65be85	-0.0035056185
14	0xbc1116d0	-0.008855537
15	0xbb23e846	-0.0025010272
16	0x3b6fa7d6	0.0036568544
17	0x3abd8b06	0.0014460988
18	0xbb1b2de6	-0.002367848
19	0x3bee6a98	0.0072758906
20	0xbb5f2184	-0.0034047076
21	0x3b32c836	0.002727998
22	0x3bb7599d	0.0055953995
23	0x3bb7f229	0.0056135845
24	0x3a8f2b4e	0.001092294
25	0x3b424650	0.002964396
26	0xb81ec735	-3.785566e-05
27	0xbb843a48	-0.004035268
28	0xba059d3a	-0.0005096976
29	0x3c0112ee	0.007878048
30	0xb9ad98c5	-0.00033110954
31	0xbb897618	-0.004194986

deep_layers.9.weight f4 [32]
0	0x3f617d31	0.8808165
1	0x3f7b02ac	0.9805095
2	0x3f60d7d6	0.8782934
3	0x3f72bf10	0.9482279
4	0x3f67fab6	0.9061693
5	0x3f6d9c5c	0.9281671
6	0x3f5e7929	0.86903626
7	0x3f87b25d	1.0601307
8	0x3f7440c5	0.9541133
9	0x3f716f2d	0.94310266
10	0x3f778610	0.9668894
11	0x3f800aa7	1.0003251
12	0x3f71e155	0.94484454
13	0x3f7a560f	0.97787565
14	0x3f5dd2b5	0.8664964
15	0x3f6ce5be	0.9253806
16	0x3f78c610	0.9717722
17	0x3f84a54c	1.0362945
18	0x3f6a4e4f	0.9152574
19	0x3f7cab11	0.98698527
20	0x3f69fad3	0.9139835
21	0x3f77ccc6	0.96796834
22	0x3f807275	1.003493
23	0x3f7e5c3e	0.993595
24	0x3f736158	0.9507041
25	0x3f819a12	1.0125144
26	0x3f7c731a	0.9861313
27	0x3f6dc04a	0.92871535
28	0x3f723b4e	0.9462174
29	0x3f7cf425	0.98810035
30	0x3f6cd0f0	0.92506313
31	0x3f6b9f24	0.92039704

deep_layers.9.bias f4 [32]
0	0xbdbc0120	-0.09179902
1	0x3bcfc475	0.006340558
2	0xbdda48fc	-0.10658452
3	0xbd493b93	-0.04912908
4	0xbdaabe2b	-0.08337053
5	0xbd874195	-0.06604306
6	0xbe2715e1	-0.1631694
7	0x3e247eea	0.16064039
8	0xbce8756d	-0.028376305
9	0xbd349873	-0.0440907
10	0x3b8effba	0.004363981
11	0x3e0a5b24	0.1351133
12	0xbc9222d8	-0.01783888
13	0x3c5de9ab	0.01354448
14	0xbdc4047c	-0.09571168
15	0x3d3a6c55	0.04551347
16	0xbc689fbb	-0.014198239
17	0x3e8b19c2	0.2716809
18	0x3e032c22	0.12809804
19	0x3c6e60d2	0.014549451
20	0x3d49be2d	0.04925363
21	0xbcf66cac	-0.030081116
22	0x3c8b80a4	0.017029114
23	0x3d7b4594	0.06134565
24	0xbd56ae55	-0.05241235
25	0x3d0fe783	0.035132896
26	0x3c0c1c33	0.008551645
27	0x3c818af1	0.015813323
28	0xbba97b58	-0.0051721744
29	0xbc9bc382	-0.019014124
30	0xbd521cdc	-0.051297054
31	0xbd93fe91	-0.07226289
